app/models/digit_convl2fconn1.pt (torch, 203183 bytes, 6 tensors)

conv_stack.1.weight f4 [32, 1, 3, 3]
-0.21859445 -0.22753012 -0.24690768 -0.10542713 0.06188696 0.16449629 0.49425688 0.024718506
0.30616128 -0.3663539 -0.057541594 0.4718273 -0.10228359 0.22076145 0.09502456 0.13546903
0.48856115 -0.26837155 -0.49291742 -0.3430428 -0.12395485 -0.37541553 0.3162568 0.28620845
0.43575805 0.37293866 -0.08908089 0.091319494 -0.00054534513 0.022987854 -0.048721902 0.04493161
0.0041791257 0.2147323 -0.28626764 0.3586163 0.55762297 0.3392748 -0.49683324 0.14211127
0.17482853 -0.52413183 0.58516467 0.18167931 -0.58687496 0.5664957 -0.38604945 -0.37388474
0.36546466 0.23414066 0.11268283 -0.25825062 0.20612192 0.36049446 0.32143962 0.4624895
0.072968915 0.0011868017 0.21197052 -0.11132602 -0.5572236 -0.25857836 -0.44970855 -0.4269354
-0.12612186 0.5793554 -0.49896714 0.124839865 0.21652043 -0.19864546 0.35001388 0.41937113
-0.09740574 -0.42640707 0.35715193 0.35172352 0.14708269 0.441807 0.27857992 0.10885559
0.040136363 0.4164997 0.41464236 -0.2848053 -0.21170565 0.23399599 0.19115359 -0.24372652
0.12101775 0.42125952 0.07933952 0.5130109 0.099185474 -0.17966592 0.18251158 -0.39595008
-0.4887323 -0.12012121 -0.3446994 0.40008333 -0.38099512 -0.4240101 0.30468827 0.21480007
0.16860329 0.29959917 -0.16958019 0.3473952 0.027420003 0.4642311 -0.24135002 -0.23538306
0.36706716 -0.3311616 0.16186792 0.3360549 0.065192886 -0.3615739 -0.48178902 -0.56716937
0.19571076 0.057022873 0.110433735 0.13601956 0.35781336 0.5681477 -0.05194874 -0.18072842
-0.14356561 -0.32037044 0.06861093 -0.08547738 0.18584424 -0.19718938 -0.3389158 0.42632842
-0.5555539 -0.46034557 -0.20783757 -0.4859222 0.3475402 -0.29185042 -0.39373016 0.4660788
0.4133395 0.17963195 -0.060852513 -0.09333603 0.20664337 -0.35328576 -0.032492563 0.050469466
-0.32459185 -0.132872 0.49386042 0.037698984 -0.2891447 -0.14091976 0.33733866 -0.49695256
0.29217264 0.40098682 -0.12733646 0.2432507 0.024729913 0.26110563 0.28507036 0.18475911
-0.2757768 0.24186368 0.1103658 -0.45721355 -0.22059733 -0.35082078 -0.3189185 -0.1586395
-0.5503091 0.46245173 0.57716453 -0.27675346 -0.2286505 -0.23123497 0.04914334 -0.11493418
-0.30690646 -0.4301308 0.38970047 0.30793133 0.46491683 0.26332557 0.29142076 0.34847865
0.26278225 0.21768887 0.17146066 0.36616546 0.1909577 -0.12029966 0.3744466 -0.18516093
-0.3346222 -0.34238708 -0.31549168 -0.17131057 -0.25283015 0.26484483 -0.3192831 -0.3366553
0.19453539 -0.016235542 -0.41496366 0.17465572 0.28195992 0.30866155 0.34969956 -0.015425751
-0.082221866 0.19156246 -0.12838954 0.021835286 0.0917769 -0.12208418 0.103708856 -0.015671102
-0.087068014 0.5756933 0.36232543 0.5157482 0.22446617 -0.12680131 0.39491463 -0.34933516
-0.30058673 0.5047595 0.19880947 0.20603491 -0.35625625 0.07586877 0.14845152 -0.18045461
0.03647681 0.06866268 0.45288455 -0.22236364 0.054199763 0.40858597 -0.38604978 -0.25285542
0.11853079 -0.24559833 0.29013333 0.21285976 -0.41723984 0.37971088 0.06362331 -0.13520378
00000000: 39d7 5fbe a8fd 68be 5ed5 7cbe 2eea d7bd
00000010: 2e7d 7d3d b771 283e 3d0f fd3e 777e ca3c
00000020: 2cc1 9c3e bd92 bbbe bcb0 6bbd 5993 f13e
00000030: 0f7a d1bd 4a0f 623e 3d9c c23d 65b8 0a3e
00000040: b024 fa3e ff67 89be ac5f fcbe 4ea3 afbe
00000050: 0adc fdbd 7736 c0be 69ec a13e ea89 923e
00000060: ae1b df3e d1f1 be3e 0b70 b6bd b705 bb3d
00000070: 7ef5 0eba 0651 bc3c 9e90 47bd 350a 383d
00000080: 0cf1 883b c9e2 5b3e ac91 92be 8e9c b73e
00000090: 61c0 0e3f 6db5 ad3e ed60 febe 9e85 113e
000000a0: 4006 333e 812d 06bf 5acd 153f 240a 3a3e
000000b0: 703d 16bf dd05 113f 46a8 c5be d26d bfbe
000000c0: 2f1e bb3e 92c2 6f3e 41c6 e63d 6d39 84be
000000d0: a011 533e bb92 b83e bc93 a43e 6ccb ec3e
000000e0: ba70 953d 758e 9b3a cd0e 593e e5fe e3bd
000000f0: 35a6 0ebf 6264 84be 3340 e6be 4797 dabe
00000100: 1726 01be a350 143f 9f78 ffbe 0bac ff3d
00000110: 88b7 5d3e b769 4bbe 0535 b33e d0b7 d63e
00000120: a97c c7bd 0752 dabe 9edc b63e 1b15 b43e
00000130: d89c 163e 8734 e23e 07a2 8e3e aeef de3d
00000140: 0766 243d 733f d53e 014c d43e 00d2 91be
00000150: 5ec9 58be a59c 6f3e c4bd 433e 7293 79be
00000160: 27d8 f73d 54af d73e c27c a23d af54 033f
00000170: c121 cb3d 58fa 37be 51e4 3a3e f8b9 cabe
00000180: 1f3b fabe 1c02 f6bd 717c b0be b9d7 cc3e
00000190: cb11 c3be da17 d9be 1a00 9c3e 8df4 5b3e
000001a0: 57a6 2c3e 1065 993e 6ea6 2dbe c9dd b13e
000001b0: ea9f e03c b3af ed3e 7624 77be 4208 71be
000001c0: 3af0 bb3e 038e a9be b4c0 253e 630f ac3e
000001d0: d983 853d 3720 b9be 0dad f6be 0332 11bf
000001e0: 6768 483e d190 693d 152b e23d b648 0b3e
000001f0: 5033 b73e 2172 113f 34c8 54bd df10 39be
00000200: dd02 13be 9807 a4be e383 8c3d c40e afbd
00000210: f44d 3e3e 03ec 49be 5f86 adbe b847 da3e
00000220: c838 0ebf 6ab2 ebbe 5fd3 54be cbca f8be
00000230: caf0 b13e 6b6d 95be 0097 c9be e1a1 ee3e
00000240: 3ca1 d33e 70f1 373e 7c40 79bd f626 bfbd
00000250: 529a 533e dfe1 b4be ec16 05bd 12b9 4e3d
00000260: e730 a6be 990f 08be 46db fc3e 406a 1a3d
00000270: c60a 94be 454d 10be a7b7 ac3e 9170 febe
00000280: a797 953e 254e cd3e 7d64 02be b616 793e
00000290: 6396 ca3c a3af 853e bef4 913e 7e31 3d3e
000002a0: 9e32 8dbe 1dab 773e 7707 e23d e517 eabe
000002b0: 44e4 61be c89e b3be 4949 a3be 6572 22be
000002c0: 0fe1 0cbf 79c6 ec3e 0ec1 133f a1b2 8dbe
000002d0: 5b23 6abe dcc8 6cbe 874a 493d 9d62 ebbd
000002e0: d822 9dbe 1b3a dcbe d286 c73e 2da9 9d3e
000002f0: 9409 ee3e 9cd2 863e 1a35 953e cb6b b23e
00000300: 658b 863e d5e9 5e3e 6293 2f3e 0a7a bb3e
00000310: 6a8a 433e ab5f f6bd 77b7 bf3e d49a 3dbe
00000320: 9a53 abbe 5c4d afbe 2088 a1be 0a6c 2fbe
00000330: f472 81be be99 873e 1379 a3be 155e acbe
00000340: 4934 473e 6600 85bc 1e76 d4be f3d8 323e
00000350: 0d5d 903e e308 9e3e d20b b33e 4abc 7cbc
00000360: f063 a8bd f328 443e 8c78 03be eadf b23c
00000370: 87f5 bb3d 4507 fabd 4f65 d43d af60 80bc
00000380: b750 b2bd a360 133f b882 b93e 1308 043f
00000390: 76da 653e 34d8 01be 4032 ca3e 0fdc b2be
000003a0: 81e6 99be eb37 013f b694 4b3e d1fa 523e
000003b0: 3867 b6be 1661 9b3d ad03 183e 18c9 38be
000003c0: b568 153d 059f 8c3d 7ce0 e73e 4bb3 63be
000003d0: 9200 5e3d 2e32 d13e 51a8 c5be 4476 81be
000003e0: 45c0 f23d 217e 7bbe 5b8c 943e e9f7 593e
000003f0: 76a0 d5be 7769 c23e f04c 823d dc72 0abe

conv_stack.1.bias f4 [32]
-0.17337063 0.1308213 -0.01490575 -0.2100163 -0.2225443 -0.4299722 -0.13273664 -0.3647928
-0.07606382 -0.1547306 -0.20321833 -0.33508644 -0.28751984 0.12564123 0.23315734 0.12135248
-0.18149762 -0.12056653 -0.33892202 0.08443651 -0.17709671 -0.054894775 0.0007591518 -0.2625281
-0.20746265 -0.123777814 -0.3488455 0.0040873787 0.30837244 -0.084543526 0.03313037 -0.03749328
00000000: 1288 31be 05f6 053e 3f37 74bc 830e 57be
00000010: a7e2 63be 5125 dcbe 1dec 07be 1fc6 babe
00000020: 59c7 9bbd b371 1ebe 7718 50be 7390 abbe
00000030: cd35 93be 18a8 003e ccc0 6e3e a687 f83d
00000040: 83da 39be 96eb f6bd 3087 adbe 0ded ac3d
00000050: d758 35be 58d9 60bd d101 473a 156a 86be
00000060: 1771 54be 397f fdbd e19b b2be 6bef 853b
00000070: fee2 9d3e 2825 adbd b6b3 073d 8e92 19bd

conv_stack.4.weight f4 [64, 32, 3, 3]
-0.044928223 -0.048009187 0.0037171778 0.0040683076 -0.04294872 -0.06295576 0.034379374 0.02471141
-0.060424797 -0.011328584 -0.0029012477 0.040040344 -0.023068555 -0.027418036 0.13524102 0.009953362
0.079524755 0.13973744 -0.042390697 -0.09183753 0.0113785025 0.006594471 -0.052948013 0.029746436
-0.010443467 -0.015214966 -0.09041527 0.0011854303 0.026344456 -0.037392437 -0.018059181 0.019432323
0.03060914 -0.018558234 -0.029600197 0.06588513 0.11324194 0.072920024 0.09221121 0.012173064
-0.08187118 0.11613528 -0.05690038 -0.050901636 0.17202264 0.024045888 0.023614367 -0.04441461
0.0026420525 -0.02444745 -0.040910926 0.053269766 -0.07030472 0.12604927 0.06962034 0.049511634
0.022972357 -0.014851404 -0.02776614 -0.12444497 -0.0305919 -0.043928992 -0.1434028 -0.06317668
0.03906947 0.07606122 -0.048203684 -0.020222489 0.15360892 -0.0060262727 0.15431541 0.10954036
-0.0014419876 0.0013066994 -0.058698125 -0.04511776 -0.073538065 0.035585362 0.041778646 -0.0014323255
-0.036556233 0.012260245 0.040906124 -0.008932081 -0.026156165 -0.022267396 -0.07444962 0.02678259
0.025255121 0.11123825 -0.009943652 0.0063043935 -0.071025625 0.031059653 -0.044821825 -0.04973822
-0.044265613 -0.07797787 -0.11613461 -0.020692533 -0.022237847 -0.09014271 0.013754769 -0.024721114
-0.038620684 -0.016533934 -0.11526933 0.09787038 0.04977916 0.03165266 -0.05852418 -0.04355363
-0.02210008 0.086604394 0.047955763 -0.015181146 0.11518149 -0.054821543 -0.13574305 -0.010996649
-0.07506799 0.034888033 -0.11058935 -0.013078701 -0.027892176 -0.15841436 0.03749184 0.060228832
-0.00071481755 0.044310607 -0.0067947344 -0.005218255 -0.041264202 -0.011714674 -0.057385646 -0.036078513
-0.07681585 0.05322205 -0.04277576 0.02643971 0.095556736 0.007151637 -0.011126515 -0.097213395
-0.031230105 -0.031016236 0.075130664 0.062467147 -0.07604411 -0.034213588 0.035967678 -0.02636011
-0.047221515 0.007411891 0.05156302 0.022323765 -0.062315818 -0.025317824 -0.00027270507 0.053518306
0.083512306 0.013965411 -0.026835494 0.012787752 -0.07736898 0.032882538 -0.043093916 0.0031153334
0.024503415 0.06475625 0.088943005 0.04053227 -0.019981135 -0.07400777 0.062640995 -0.049034473
-0.18246955 -0.019750489 -0.12812464 -0.20406055 -0.03000683 -0.10387376 0.03398508 -0.008400098
-0.02352435 -0.00065466255 -0.019547582 -0.06025429 -0.034415513 0.06329775 0.046266206 -0.07557549
-0.026078692 -0.10419952 0.11334697 -0.044209026 0.09283345 0.04394968 -0.025315695 -0.0023079764
0.033566244 0.045758933 -0.015849655 0.004486959 -0.0014380882 -0.002351744 -0.14634708 -0.011827327
-0.0073158857 0.020390695 0.027344134 -0.00814722 0.08582542 -0.03856186 0.06209763 0.06861553
-0.01444108 0.040320534 0.008830678 -0.0032556183 -0.049913403 0.0064427494 -0.013842434 0.01079669
0.052581772 0.05485308 0.0025409306 -0.13671589 -0.020504337 -0.050396126 -0.047636338 -0.011580756
0.03784233 0.05605211 0.0019624678 -0.03406961 -0.06342694 -0.028452832 -0.0925822 0.027538914
0.008874195 -0.08601255 0.11782341 -0.0716402 0.015488777 -0.006688113 -0.04004844 0.07833294
0.036214475 -0.029491521 0.06415681 0.050696995 0.030071048 0.0061269044 0.0034131357 -0.022795668
00000000: a806 38bd 48a5 44bd e59b 733b 704f 853b
00000010: ffea 2fbd f3ee 80bd 63d1 0c3d 956f ca3c
00000020: fe7f 77bd 869b 39bc dc22 3ebb 5801 243d
00000030: 44fa bcbc ca9b e0bc 9f7c 0a3e 6d13 233c
00000040: e0dd a23d 5517 0f3e dea1 2dbd 5115 bcbd
00000050: e66c 3a3c 6f16 d83b 04e0 58bd ccae f33c
00000060: 131b 2bbc 3148 79bc a42b b9bd 7160 9b3a
00000070: 54d0 d73c d028 19bd d9f0 93bc 8930 9f3c
00000080: 05c0 fa3c 7007 98bc 1d7c f2bc c8ee 863d
00000090: 64eb e73d 1857 953d 3bd9 bc3d 8871 473c
000000a0: 14ac a7bd 55d8 ed3d 5f10 69bd 3c7e 50bd
000000b0: b426 303e e2fb c43c eb72 c13c 18ec 35bd
000000c0: 4926 2d3b 0546 c8bc 3792 27bd 6631 5a3d
000000d0: ecfb 8fbd 0f13 013e 1c95 8e3d b6cc 4a3d
000000e0: 8630 bc3c 4e53 73bc d175 e3bc 01dd febd
000000f0: dd9b fabc e3ee 33bd 2fd8 12be c662 81bd
00000100: 4f07 203d fcc5 9b3d 3a71 45bd a2a9 a5bc
00000110: a84b 1d3e 0a78 c5bb dc04 1e3e b256 e03d
00000120: 1301 bdba 8e45 ab3a 726d 70bd 66cd 38bd
00000130: 209b 96bd f5c1 113d 1620 2b3d debc bbba
00000140: fdbb 15bd 32df 483c 2e8d 273d dd57 12bc
00000150: 7445 d6bc 1d6a b6bc 0b79 98bd 2a67 db3c
00000160: d4e3 ce3c e1d0 e33d b3ea 22bc 1695 ce3b
00000170: e275 91bd d070 fe3c 1797 37bd 4eba 4bbd
00000180: dc4f 35bd ddb2 9fbd fbd7 edbd 6383 a9bc
00000190: 252c b6bc be9c b8bd af5b 613c ef83 cabc
000001a0: b930 1ebd 2c72 87bc 5412 ecbd 4470 c83d
000001b0: 3ce5 4b3d 38a6 013d 0db7 6fbd 4b65 32bd
000001c0: 3a0b b5bc a55d b13d 436d 443d 57ba 78bc
000001d0: 46e4 eb3d 8e8c 60bd 3a00 0bbe 4a2b 34bc
000001e0: 3fbd 99bd c1e6 0e3d ab7c e2bd 0c48 56bc
000001f0: 227e e4bc 6037 22be 0b91 193d 82b2 763d
00000200: 9862 3bba 0a7f 353d 5da6 debb e5fd aabb
00000210: a704 29bd e7ee 3fbc 360d 6bbd 10c7 13bd
00000220: a151 9dbd 5dff 593d a335 2fbd 1798 d83c
00000230: 40b3 c33d 4858 ea3b fd4b 36bc d117 c7bd
00000240: 47d6 ffbc c315 febc 1bde 993d 8ddd 7f3d
00000250: 04bd 9bbd 8c23 0cbd d852 133d 28f1 d7bc
00000260: 596b 41bd 73df f23b bf33 533d 54e0 b63c
00000270: df3e 7fbd 5367 cfbc dbf9 8eb9 0336 5b3d
00000280: 8008 ab3d 2ecf 643c 1cd6 dbbc b883 513c
00000290: a173 9ebd d7af 063d 3f83 30bd 9f2a 4c3b
000002a0: 63bb c83c ed9e 843d c027 b63d 2a05 263d
000002b0: 7aaf a3bc 6391 97bd ec49 803d 5fd8 48bd
000002c0: 4cd9 3abe c7cb a1bc 1b33 03be 40f5 50be
000002d0: e2d0 f5bc c4bb d4bd f033 0b3d 91a0 09bc
000002e0: 23b6 c0bc a99d 2bba 4022 a0bc 34cd 76bd
000002f0: 48f7 0cbd 40a2 813d a281 3d3d 53c7 9abd
00000300: fba2 d5bc 8f66 d5bd 7522 e83d 8614 35bd
00000310: 771f be3d 9404 343d dc62 cfbc 6b41 17bb
00000320: c27c 093d b86d 3b3d 23d7 81bc 5707 933b
00000330: 3c7e bcba b81f 1abb 02dc 15be 68c7 41bc
00000340: 19ba efbb 630a a73c ce00 e03c eb7b 05bc
00000350: 3dc5 af3d 0af3 1dbd 165a 7e3d 4d86 8c3d
00000360: 489a 6cbc 2527 253d 8cae 103c 365c 55bb
00000370: ff71 4cbd b31d d33b 60cb 62bc 9ae4 303c
00000380: fc5f 573d a0ad 603d be85 263b 40ff 0bbe
00000390: b6f8 a7bc 2b6c 4ebd 521e 43bd 36bd 3dbc
000003a0: 8f00 1b3d e696 653d bf9c 003b 938c 0bbd
000003b0: fce5 81bd ea15 e9bc bd9b bdbd 4a99 e13c
000003c0: 1265 113c 5927 b0bd 664d f13d 19b8 92bd
000003d0: a4c4 7d3c f527 dbbb d509 24bd 056d a03d
000003e0: a155 143d 3498 f1bc a564 833d a7a7 4f3d
000003f0: 8f57 f63c 33c4 c83b eaae 5f3b fbbd babc

conv_stack.4.bias f4 [64]
0.016416723 0.018613772 -0.047403168 -0.058787566 -0.017855065 -0.025858711 -0.037944563 0.014196791
-0.045114465 -0.03893276 -0.13266225 -0.10385665 0.034275264 -0.055007283 0.024644317 0.013935744
-0.011226188 0.0067379996 0.025036477 -0.0439839 -0.046078503 -0.020923046 -0.12778774 -0.086337656
-0.048291165 -0.057828948 -0.05472156 -0.079183325 -0.058499347 -0.0074376673 -0.0038433135 -0.021206977
-0.008522975 -0.03571359 -0.06597246 -0.014303777 0.00602074 -0.015501438 -0.039883632 0.022627758
0.022698326 0.015915215 0.023615858 -0.0012734896 -0.044464093 0.06829116 -0.079301946 0.0020239553
-0.019850064 -0.07782298 -0.040244438 -0.062859125 0.029216476 -0.015961189 0.016162643 -0.073882714
0.012146816 0.011341588 -0.005189584 0.0055604647 0.0029757977 -0.008920706 0.033806115 -0.03849456
00000000: 5d7c 863c e97b 983c d329 42bd 3bcb 70bd
00000010: c944 92bc a6d5 d3bc c26b 1bbd a899 683c
00000020: f2c9 38bd f577 1fbd 9dd8 07be ccb2 d4bd
00000030: 3864 0c3d 514f 61bd e1e2 c93c bf52 643c
00000040: 0cee 37bc 70ca dc3b 4c19 cd3c 7628 34bd
00000050: d0bc 3cbd cf66 abbc cada 02be ccd1 b0bd
00000060: f5cc 45bd 0cde 6cbd b723 60bd de2a a2bd
00000070: 039d 6fbd adb7 f3bb 1ae0 7bbb 41ba adbc
00000080: f3a3 0bbc 6a48 12bd 921c 87bd 645a 6abc
00000090: a149 c53b bef9 7dbc 055d 23bd d95d b93c
000000a0: d7f1 b93c a060 823c 0b76 c13c 38eb a6ba
000000b0: fb1f 36bd 3cdc 8b3d 0f69 a2bd 56a4 043b
000000c0: 9a9c a2bc a861 9fbd 5ad7 24bd 49bc 80bd
000000d0: 6457 ef3c 0ac1 82bc 8567 843c d24f 97bd
000000e0: 7003 473c 11d2 393c 630d aabb 8f34 b63b
000000f0: 9a05 433b 2728 12bc 4878 0a3d 79ac 1dbd

linear.weight f4 [10, 3136]
-0.001217196 -0.007600796 0.02577873 0.015427565 -0.009694675 -0.001082974 0.007167199 -0.020942673
-0.010064395 0.041254755 0.032657087 -0.0049158162 0.013198216 -0.0038600517 0.050103668 -0.0056070834
0.09648069 -0.020958368 -0.008971086 -0.009586244 -0.015114855 0.08032796 0.11008803 0.031634573
-0.0502228 0.018226355 0.00034315253 -0.00031501855 0.059950914 0.069295175 0.035254113 -0.050390087
-0.031105755 -0.0011755148 0.01616344 0.0064099613 -0.0036171079 -0.040423952 -0.017131828 -0.019964015
-0.009460459 0.012779705 0.007956082 -0.0056106276 -0.04440889 0.003543661 0.016130995 0.001290867
0.0115191 0.0017875151 -0.0044984887 0.0015953165 -0.00076018245 0.006947434 0.012986953 -0.017735166
0.002759997 -0.013080692 0.02693823 0.05985702 0.03256351 -0.0007739342 0.0031316418 -0.0022511783
0.00041399102 0.014698319 -0.041200813 -0.07176913 -0.020200687 -0.006806372 -0.019245803 -0.03647529
0.0030649295 -0.07011798 -0.05188813 -0.026792644 0.013582601 -0.03021813 -0.029514553 0.00398481
0.050157536 -0.0046410775 0.00033881702 -0.0183005 -0.0025060063 0.012798793 0.023461739 0.0058072987
0.01041791 -0.0217694 0.015730865 0.007729964 -0.0008244802 0.019938238 -0.008963071 0.0072453967
-0.0025278972 -0.00842457 -0.008298911 -0.003462617 -0.03644662 -0.025499854 -0.0038780572 0.018086221
-0.011330143 0.016129816 0.03386661 0.023627354 0.0024425755 -0.054158058 -0.034300778 0.00706568
0.001237683 0.043843593 -0.021045573 -0.02369702 -0.09030908 -0.08293409 0.0054659587 -0.021388816
-0.018778851 0.018492073 0.0104355225 -0.08076667 0.016171813 0.04581333 -0.022738123 0.06923509
0.07769999 -0.112634875 0.021378538 0.09105115 0.048109137 -0.0035456289 0.023160502 -0.022217738
-0.059694875 0.1476237 0.044147152 0.033913057 -0.01674574 0.005021233 -0.050805323 -0.03478303
-0.069095984 0.0115107875 -0.00092028925 -0.004444222 -0.010457321 0.009444438 0.009125049 -0.00533359
0.016498212 0.008018815 -0.01076749 -0.016140854 -0.016334241 0.013460696 0.013851762 0.00299015
-0.0023570803 0.0029498423 0.00085587223 0.023605011 0.02776165 0.00310534 -0.008772178 -0.022151731
-0.018959254 0.0070050545 -0.015573506 -0.060691047 -0.043008156 0.002281398 -0.012663576 -0.0053440346
-0.0044445675 -0.03166428 -0.039234906 -0.002223664 0.022915013 -0.0036148687 -0.003983351 -0.013591341
0.024007205 0.0048774537 0.032336097 -0.01826786 0.00066528085 -0.01424819 -0.006021292 0.01298426
-0.015277906 -0.007355961 -0.0069620297 0.016892308 0.006601296 -0.021344 -0.020214938 -0.041391123
-0.012821139 0.013941942 -0.0008090404 0.0057396446 -0.012932146 -0.03402184 -0.004242512 0.05249371
0.025543122 0.021692935 0.004023364 -0.030807732 -0.04834776 -0.025799511 0.024554484 -0.016086236
0.021974716 -0.019502586 -0.02686598 0.03181026 0.010000493 -0.03353264 0.0039688204 -0.02458739
0.016450725 -0.0069995406 0.051096674 0.009485854 -0.0481663 -0.050891586 -0.025581552 0.0045786137
-0.0013499574 0.012736778 0.019860435 -0.006985775 -0.0063934186 -0.0154398745 -0.007457099 0.00833094
0.0058239447 0.0008484013 -0.021059506 -0.00086054497 0.016667778 0.012873719 0.0065160943 -0.006739054
-0.014804676 -0.00995515 -0.014889372 -0.006943075 -0.017498426 0.014097928 0.0068164067 0.0077178134
00000000: 528a 9fba 1910 f9bb ea2d d33c e6c3 7c3c
00000010: 6ad6 1ebc 94f2 8dba d3da ea3b f88f abbc
00000020: 22e5 24bc bffa 283d 70c3 053d db14 a1bb
00000030: 553d 583c ecf8 7cbb 8139 4d3d a0bb b7bb
00000040: ab97 c53d e2b0 abbc 76fb 12bc 9f0f 1dbc
00000050: 4ca4 77bc fc82 a43d d575 e13d 4193 013d
00000060: 6cb6 4dbd 704f 953c 27e9 b339 1329 a5b9
00000070: 178f 753d a1ea 8d3d 9e66 103d d665 4ebd
00000080: 7fd1 febc bb13 9aba 3169 843c a70a d23b
00000090: 000d 6dbb 9693 25bd 0c58 8cbc 938b a3bc
000000a0: 0b00 1bbc f861 513c 3a5a 023c 5bd9 b7bb
000000b0: 19e6 35bd c43c 683b 2625 843c 4f32 a93a
000000c0: 9bba 3c3c 0e4b ea3a 0f68 93bb f019 d13a
000000d0: fb46 47ba 4da7 e33b 3bc7 543c 5749 91bc
000000e0: 11e1 343b 6650 56bc 90ad dc3c a22c 753d
000000f0: 5161 053d d8e1 4aba 3b3c 4d3b 8188 13bb
00000100: ef0c d939 38d1 703c 2fc2 28bd b2fb 92bd
00000110: e97b a5bc fd07 dfbb 60a9 9dbc 1d67 15bd
00000120: fcdc 483b 049a 8fbd a688 54bd 3f7c dbbc
00000130: 8f89 5e3c 038c f7bc 81c8 f1bc 0293 823b
00000140: fd71 4d3d 2e14 98bb 40a3 b139 eeea 95bc
00000150: cf3b 24bb 07b2 513c d532 c03c 274b be3b
00000160: e2af 2a3c be55 b2bc 04de 803c a34b fd3b
00000170: ee21 58ba 8455 a33c d8d9 12bc cb6a ed3b
00000180: 14ab 25bb 3507 0abc 28f8 07bc 13ed 62bb
00000190: 0d49 15bd 12e5 d0bc 0127 7ebb 8e29 943c
000001a0: 10a2 39bc ad22 843c b7b7 0a3d 278e c13c
000001b0: 9e13 203b d7d4 5dbd f97e 0cbd 3887 e73b
000001c0: c039 a23a 5795 333d c467 acbc 4120 c2bc
000001d0: f8f3 b8bd 59d9 a9bd c91b b33b 9937 afbc
000001e0: 1bd6 99bc b07c 973c c1f9 2a3c ff68 a5bd
000001f0: c07a 843c c2a6 3b3d 4d45 babc 20cb 8d3d
00000200: 2c21 9f3d 1dad e6bd 0b22 af3c 0679 ba3d
00000210: 160e 453d c85d 68bb 18bb bd3c f901 b6bc
00000220: 9d82 74bd ab2a 173e a5d3 343d 6be8 0a3d
00000230: 5d2e 89bc 2889 a43b 3e19 50bd a778 0ebd
00000240: 3282 8dbd be97 3c3c 913f 71ba d6a0 91bb
00000250: 2f55 2bbc d8bc 1a3c 3b81 153c 65c5 aebb
00000260: 4227 873c 5961 033c 206a 30bc d339 84bc
00000270: 63cf 85bc 408a 5c3c 80f2 623c 64f6 433b
00000280: 3f79 1abb 2452 413b 9d5c 603a 4c5f c13c
00000290: 666c e33c f682 4b3b 2eb9 0fbc 8c77 b5bc
000002a0: 7050 9bbc a88a e53b 0528 7fbc 2d97 78bd
000002b0: 5229 30bd 8283 153b e37a 4fbc 031d afbb
000002c0: bca3 91bb 67b2 01bd c8b4 20bd e4ba 11bb
000002d0: 44b8 bb3c 6fe7 6cbb c586 82bb 37ae 5ebc
000002e0: c2aa c43c 0cd3 9f3b db72 043d 7ba6 95bc
000002f0: 3e66 2e3a 3e71 69bc 424e c5bb efbb 543c
00000300: 2f50 7abc 460a f1bb bd21 e4bb bd61 8a3c
00000310: af4f d83b 9dd9 aebc cc99 a5bc bd89 29bd
00000320: c10f 52bc be6c 643c c815 54ba a113 bc3b
00000330: 5ae1 53bc 7c5a 0bbd c504 8bbb a503 573d
00000340: cf3f d13c 62b5 b13c 6cd6 833b 7f60 fcbc
00000350: 4d08 46bd 7f59 d3bc 7c26 c93c 48c7 83bc
00000360: 5204 b43c e3c3 9fbc 0b16 dcbc 7a4b 023d
00000370: 1cd9 233c 8659 09bd e10c 823b 7e6b c9bc
00000380: acc3 863c 675c e5bb bf4a 513d 8e6a 1b3c
00000390: 074a 45bd b273 50bd 6790 d1bc 3208 963b
000003a0: 0ef1 b0ba ebad 503c 5ab2 a23c eee8 e4bb
000003b0: e27f d1bb 87f7 7cbc ae5a f4bb 7f7e 083c
000003c0: cad6 be3b 3f67 5e3a fc84 acbc 3296 61ba
000003d0: dd8a 883c 4bec 523c f684 d53b 48d3 dcbb
000003e0: 508f 72bc ed1a 23bc 8df2 73bc bc82 e3bb
000003f0: dc58 8fbc fffa 663c 2a5c df3b b6e5 fc3b

linear.bias f4 [10]
0.009975358 0.015191819 -0.00900243 0.054975163 -0.019757127 0.04221136 -0.036628 0.011904135
-0.01708588 -0.030585626
00000000: af6f 233c 1be7 783c ee7e 13bc a32d 613d
00000010: b3d9 a1bc d2e5 2c3d 3e07 16bd 9009 433c
00000020: b0f7 8bbc b58e fabc
