app/models/digit_convl4fconn1.pt (torch, 212939 bytes, 10 tensors)

conv_stack.1.weight f4 [32, 1, 3, 3]
0	0x3da15986	0.07878403
1	0xbe42a832	-0.19009474
2	0x3d35ec1f	0.044414636
3	0xbe36cced	-0.1785161
4	0xbe81d716	-0.2535941
5	0xbe94ca21	-0.29060462
6	0xbd205e21	-0.03915227
7	0x3d45dfe1	0.04830921
8	0xbdc35c89	-0.09539134
9	0xbe9ffea6	-0.3124897
10	0xbeee0795	-0.4649016
11	0xbdc84b11	-0.09779943
12	0x3e4d4819	0.20047034
13	0xbe96cf6d	-0.29455128
14	0xbdcdb16a	-0.10043605
15	0xbd6fb854	-0.0585254
16	0xbece7c3b	-0.40329155
17	0xbe42e329	-0.19031967
18	0xbf079da5	-0.5297492
19	0xbe0cab5a	-0.1373724
20	0xbe7c7966	-0.24655685
21	0xbe472437	-0.19447409
22	0xbd93b373	-0.072119616
23	0xbe478a11	-0.19486262
24	0xbec77a95	-0.3896071
25	0xbeeb5be8	-0.45968556
26	0xbe3244ea	-0.17409101
27	0xbda4a8cc	-0.08040008
28	0xbe5cd040	-0.21563816
29	0xbe43f935	-0.19138034
30	0xbe447958	-0.19186914
31	0xbe8c69c3	-0.2742444
32	0xbedac5c1	-0.42729
33	0xbd006ae0	-0.031351924
34	0xbdaa757f	-0.08323192
35	0xbe7238e1	-0.2365451
36	0xbea0d828	-0.31414914
37	0x3eb27632	0.348558
38	0x3e011ec5	0.12609394
39	0xbe93c474	-0.2886082
40	0xbe0b325f	-0.13593434
41	0xbe388373	-0.18018894
42	0x3ed82c84	0.42221463
43	0xbe1492b0	-0.14509082
44	0xbe277ae0	-0.16355467
45	0xbca9903a	-0.020698655
46	0xbe89ee96	-0.2693984
47	0xbe89bc86	-0.26901644
48	0xbe18cb66	-0.1492134
49	0x3d89da5b	0.06731101
50	0xbe844a71	-0.25838044
51	0xbe1f6615	-0.15566285
52	0xbe160723	-0.1465116
53	0xbd0b65c2	-0.03403259
54	0xbe2758ce	-0.1634247
55	0xbdc0582a	-0.09391816
56	0x3e754eaf	0.23955797
57	0x3d11d9a6	0.035607956
58	0xbddb88fc	-0.10719487
59	0xbde20b57	-0.11037319
60	0xbe8425b0	-0.25810003
61	0x3cc4d6c9	0.024028199
62	0xbe7e3d84	-0.24828154
63	0x3d1411ab	0.036149662
64	0xbe2fc646	-0.17165479
65	0xbea49209	-0.32142666
66	0xbd645c34	-0.055751994
67	0xbd9da8f6	-0.07698242
68	0x3c0f3ce1	0.008742542
69	0x3e8d84db	0.27640423
70	0xbd025d24	-0.031827107
71	0x3d58c9d3	0.05292685
72	0x3e2e8d6d	0.17046137
73	0x3ed4c2fa	0.41555005
74	0x3e95c40d	0.29251137
75	0xbe7c6ba2	-0.24650434
76	0xbe016fdc	-0.12640327
77	0x3c6692bf	0.014073073
78	0xbeab3ea7	-0.33446237
79	0xbe61b1c7	-0.22040473
80	0xbed4374d	-0.4144844
81	0x3e058a2c	0.1304099
82	0x3dcf717f	0.101290695
83	0x3e86f2ab	0.26357016
84	0xbf2ffcd0	-0.68745136
85	0xbd9db65a	-0.077007964
86	0x3b390ff6	0.0028238273
87	0x3c1b393b	0.009474094
88	0xbb6b4119	-0.0035896956
89	0x3ec3dfcd	0.38256684
90	0xbe98ada2	-0.2981997
91	0xbede44e1	-0.43411925
92	0x3bc9c0e1	0.006157026
93	0x3e003db8	0.12523544
94	0xbe989aff	-0.29805753
95	0xbe49e627	-0.19716702
96	0x3f0f1d5a	0.5590416
97	0xbe97af76	-0.29626054
98	0xbeab1b8a	-0.33419448
99	0xbe948dd6	-0.29014462
100	0x3e24ece4	0.16105992
101	0xbe97c6f2	-0.2964397
102	0xbda26f99	-0.07931442
103	0xbe353d43	-0.1769915
104	0xbd2b89d2	-0.041879483
105	0xbed52dca	-0.41636497
106	0x3d9563a9	0.07294399
107	0xbea1b8b3	-0.31586227
108	0xbe7fdb7c	-0.2498607
109	0xbd91eaf0	-0.07124889
110	0xbe94abda	-0.29037362
111	0xbe25fac8	-0.16208947
112	0xbdac32da	-0.08408137
113	0xbdcd2e89	-0.100186415
114	0x3e9a7001	0.30163577
115	0x3e92f9c1	0.28706172
116	0xbe8026ac	-0.25029504
117	0xbdfab856	-0.122421905
118	0xbf052cd6	-0.5202154
119	0xbe54d78f	-0.20785354
120	0x3d11783d	0.03551506
121	0xbc336576	-0.010949483
122	0xbd178f9f	-0.037002202
123	0x3ea71a17	0.32637092
124	0x3e33eca1	0.17570736
125	0x3eb74f1e	0.3580255
126	0x3d970607	0.073741965
127	0xbda7572e	-0.08170925
128	0xbe8881f7	-0.26661655
129	0xbefc7597	-0.49308464
130	0xbf09c168	-0.5381074
131	0xbe4cdb75	-0.20005591
132	0xbead0c16	-0.33798283
133	0x3e2134f1	0.15742852
134	0x3ec368e3	0.3816596
135	0x3db6341c	0.08896658
136	0xbe25ddc0	-0.16197872
137	0xbed8f4d8	-0.423743
138	0x3e77497d	0.24149127
139	0x3e3932d4	0.18085796
140	0xbed681bb	-0.41895851
141	0x3d199a6f	0.037500795
142	0xbed85b52	-0.42257172
143	0xbebe831a	-0.37209398
144	0xbe4e11c3	-0.20123963
145	0xbed6627d	-0.41872016
146	0xbce28f9e	-0.027656373
147	0xbe3742b9	-0.17896546
148	0xbe511c84	-0.20421034
149	0xbe2215cc	-0.15828627
150	0xbdbf2672	-0.09333505
151	0xbeae188b	-0.340031
152	0x3ea0f567	0.31437227
153	0xbda4fccb	-0.08056029
154	0x3cea95ce	0.028635886
155	0xbd2bc296	-0.04193362
156	0xbed244a1	-0.41067985
157	0xbf0c2f50	-0.54759693
158	0xbdf65867	-0.1202858
159	0xbea499d2	-0.32148606
160	0xbe8cba34	-0.27485812
161	0x3d31655d	0.04330956
162	0xbe1c1b68	-0.1524483
163	0xbecec6ff	-0.40386197
164	0xbe52659f	-0.20546578
165	0xbe8b37df	-0.27191064
166	0xbdd60d53	-0.1045176
167	0x3ea1e44d	0.31619492
168	0xbe94882f	-0.2901015
169	0x3e0e98a0	0.1392541
170	0x3e203457	0.15644966
171	0xbe930954	-0.28718054
172	0xbdd89e1a	-0.105770305
173	0xbe4e7744	-0.20162684
174	0xbe1f0bf8	-0.1553191
175	0xbec70e35	-0.38878027
176	0xbe94ab6f	-0.29037043
177	0xbedfcc83	-0.43710718
178	0xbe92a640	-0.28642464
179	0xbe4042a0	-0.18775415
180	0xbf014395	-0.50493747
181	0x3e59d1b0	0.21271396
182	0x3e921799	0.2853363
183	0xbee90b74	-0.4551655
184	0xbf2125da	-0.6294838
185	0xbee7d09c	-0.45276344
186	0x3e41b248	0.18915665
187	0x3e14e291	0.14539553
188	0xbe3bf2d7	-0.18354355
189	0x3f0dc91f	0.5538501
190	0xbedd497d	-0.4322013
191	0xbe95e261	-0.29274276
192	0x3c0beae5	0.00853989
193	0xbf059f9c	-0.5219667
194	0x3d10dc3a	0.035366274
195	0xbefddff6	-0.4958493
196	0xbed3ef9e	-0.4139375
197	0x3e341e3f	0.17589663
198	0xbc0f1acb	-0.008734415
199	0xbd7b93bc	-0.061420187
200	0xbc151d36	-0.009101203
201	0xbdb0fb73	-0.0864171
202	0xbd55ac75	-0.05216642
203	0x3de21665	0.11039428
204	0xbad01dd0	-0.0015878025
205	0xbdf485b6	-0.11939566
206	0xbc54ea04	-0.012995247
207	0xbebcf58e	-0.36906093
208	0xbebb7f84	-0.36620724
209	0x3d0f91b7	0.035051074
210	0xbd4277df	-0.0474776
211	0xbe84fc97	-0.2597396
212	0xbe9ef7d7	-0.31048462
213	0xbeef6f97	-0.46764824
214	0x3c358f4f	0.011081531
215	0xbe94d44e	-0.29068226
216	0x3dba1a14	0.09087005
217	0x3eba609e	0.36401838
218	0xbeef8937	-0.46784374
219	0xbed570fb	-0.4168776
220	0xbe3e5bcb	-0.18589704
221	0xbeb56e11	-0.35435537
222	0xbc62485c	-0.013811197
223	0xbea1078d	-0.31451073
224	0xbe19cefe	-0.15020368
225	0x3f112cae	0.567088
226	0xbdc76dd7	-0.09737747
227	0xbcbab101	-0.02278948
228	0x3d8d515d	0.069002844
229	0xbd666bf8	-0.05625531
230	0xbf22898e	-0.6349114
231	0x3e8a15aa	0.26969653
232	0x3da18061	0.078858145
233	0x3b13b168	0.0022536162
234	0xbcec2246	-0.028824937
235	0xbe0675b5	-0.13130839
236	0xbeb20974	-0.34772837
237	0xbda8d8d4	-0.08244482
238	0xbed5e543	-0.41776475
239	0xbdccb929	-0.09996254
240	0xbeb15119	-0.34632185
241	0xbdacc63e	-0.08436249
242	0xbead5f9d	-0.3386201
243	0x3d7b9c7f	0.061428543
244	0xbdeac912	-0.11464132
245	0xbf08ac63	-0.5338804
246	0xbe2e5b13	-0.1702693
247	0xbe941907	-0.28925344
248	0xbebbba89	-0.36665753
249	0xbd9715d6	-0.07377212
250	0xbe2502e1	-0.1611438
251	0xbe43f0a4	-0.19134766
252	0xbe938485	-0.28812042
253	0xbe4443c9	-0.19166483
254	0xbe4a3886	-0.19748124
255	0x3e45798e	0.1928465

conv_stack.1.bias f4 [32]
0	0xbf5dbe77	-0.8661875
1	0xbe3e440a	-0.18580642
2	0xbf3dbc9a	-0.7411591
3	0xbe44cd57	-0.19218956
4	0xbde201e1	-0.110355146
5	0xbe92800b	-0.28613314
6	0xbfa21a07	-1.2664193
7	0xbfff1790	-1.9929066
8	0xbea91f93	-0.33031902
9	0xbea90287	-0.3300974
10	0xbe7e5f7c	-0.24841112
11	0xbec4f782	-0.38470083
12	0xbe9bcd5b	-0.3043011
13	0xbed3a0ea	-0.41333705
14	0xbdf56ba1	-0.11983419
15	0xbea74540	-0.3267002
16	0xbeb924e8	-0.3616097
17	0xbea2838f	-0.31740996
18	0xbe7f0213	-0.24903135
19	0xbfd6a197	-1.6768063
20	0xbe8ba39f	-0.2727327
21	0xbea2df71	-0.31811097
22	0xbee254a8	-0.44205213
23	0xbec83adc	-0.39107406
24	0xbeacec91	-0.33774236
25	0xbed5e211	-0.41774037
26	0xbf498c42	-0.7872964
27	0xbe998a35	-0.29988256
28	0xbeb19f2d	-0.34691754
29	0xbeff22d5	-0.49831262
30	0xbf309772	-0.6898109
31	0xbedb3aca	-0.4281829

conv_stack.4.weight f4 [32, 32, 3, 3]
0	0x3d64ca5f	0.05585706
1	0x3d2fd68e	0.042929225
2	0x3ce640c2	0.02810705
3	0xbb1f8f2a	-0.0024346807
4	0x3d24dfb3	0.0402524
5	0x3d5bdb3e	0.053675883
6	0x3c3a4f64	0.011371467
7	0x3c8112b8	0.015755996
8	0xbd4db428	-0.05022064
9	0xbd90fac6	-0.07079081
10	0xbe02f0fb	-0.12787239
11	0xbdc1d110	-0.09463704
12	0xbd357fa1	-0.04431117
13	0xbdfaaf95	-0.12240521
14	0xbd5e71db	-0.0543078
15	0xbcd27177	-0.02568887
16	0xbdd71c51	-0.10503448
17	0xbd88d576	-0.066813394
18	0x3c5ca018	0.013465904
19	0xbd8bd16d	-0.06827054
20	0xbd069197	-0.03285369
21	0x3cc9d26a	0.024636466
22	0x3b5abd0b	0.0033376839
23	0xbd8d5a92	-0.069020405
24	0xbd83a2b7	-0.0642752
25	0xbd72642b	-0.05917756
26	0xbc5600a6	-0.013061678
27	0xbd8ca4bb	-0.06867357
28	0xbd8e0eba	-0.069364026
29	0xbdcf9b77	-0.101370744
30	0xbcfacbb2	-0.030614708
31	0xbd407297	-0.04698428
32	0xbdcd7da4	-0.1003373
33	0xbd737e0e	-0.059446387
34	0xbdbcd256	-0.09219806
35	0xbd15db03	-0.03658582
36	0x3bcf7074	0.006330544
37	0x3dd74479	0.10511107
38	0x3d130289	0.03589109
39	0x3d812301	0.063055046
40	0x3d3d7a18	0.046259016
41	0x3dabaec9	0.08382947
42	0x3d2f3af1	0.04278082
43	0x3da4ef19	0.08053417
44	0x3cc3ade7	0.023886634
45	0xbd847c34	-0.06469002
46	0x3cdfddde	0.027327474
47	0xbd82e364	-0.063910276
48	0x3c76a0fa	0.015053028
49	0xbd902f14	-0.070402294
50	0x3c5050ce	0.012714578
51	0xbb3a809b	-0.0028458002
52	0xbd883eef	-0.06652629
53	0xbcda39b2	-0.02663884
54	0xbd2fbe3e	-0.04290604
55	0xbc9ee8cf	-0.019398121
56	0xbccd008a	-0.025024671
57	0xbce99afd	-0.028516287
58	0xbd1f475c	-0.038886413
59	0xb8935fe0	-7.027364e-05
60	0x3d5bdf9c	0.053680047
61	0xbb94e76a	-0.0045441883
62	0xbce13638	-0.027491674
63	0xbd8495b6	-0.064738676
64	0xbccb3ca3	-0.024809187
65	0x3d3dbd82	0.046323307
66	0x3cb52908	0.022114292
67	0xbd5c6518	-0.053807348
68	0xbd89a49b	-0.06720849
69	0xbcdd1cd4	-0.026991285
70	0x3d20d773	0.03926797
71	0xbc937c7c	-0.018003695
72	0x3e03a412	0.12855557
73	0x3e254bdc	0.1614222
74	0x3e33a409	0.17543043
75	0x3cf5d2a9	0.030007677
76	0xbac4e24e	-0.0015021057
77	0x3da45ae1	0.08025146
78	0x3cd4b82f	0.025966732
79	0x3e09133f	0.13386248
80	0x3e1c8e8a	0.1528875
81	0xbd00af09	-0.031416927
82	0x3b8cd7a6	0.0042981682
83	0x3e3949ac	0.1809451
84	0x3cc8f4b6	0.02453075
85	0x3e152e18	0.14568365
86	0x3e82a5d7	0.2551715
87	0xbc4bd643	-0.012441221
88	0xbd229940	-0.03969693
89	0xbd4abd61	-0.049497012
90	0xbcf113f7	-0.029428465
91	0xbd9a451e	-0.07532714
92	0xbdb30e71	-0.08742989
93	0xbb8f2ad2	-0.0043691183
94	0xbd60985c	-0.0548328
95	0xbd44dccf	-0.048062142
96	0xbd8870f0	-0.06662166
97	0xbd67c5ac	-0.056585
98	0xbd5abef2	-0.053404756
99	0xbd831c9c	-0.06401941
100	0xbc3d8640	-0.011567652
101	0xbda36daf	-0.07979905
102	0xbd9b9965	-0.07597617
103	0xbd8d04d5	-0.06885687
104	0xbd96c54a	-0.07361849
105	0x3ce6e1f4	0.028183915
106	0x3c82456e	0.015902247
107	0x3d123f42	0.03570486
108	0x3ca84bad	0.020543898
109	0x3bdcb939	0.0067359474
110	0xbd12abb9	-0.0358083
111	0x3de99f67	0.11407357
112	0x3c88c217	0.016694112
113	0xbd7e12bc	-0.062029585
114	0x3d1e3ef2	0.038634248
115	0x3ba0a3b6	0.0049023284
116	0xbcce9c71	-0.025221081
117	0xbe012831	-0.12612988
118	0xbd20acda	-0.039227344
119	0xbda6ad4d	-0.08138523
120	0x3e2c0c60	0.16801596
121	0x3e687d5d	0.22704072
122	0x3dd18b21	0.10231615
123	0xbc7799ee	-0.015112383
124	0x3d33a7b8	0.04386112
125	0x3da81872	0.082077876
126	0xbd798e09	-0.06092647
127	0xbe1ce15b	-0.15320341
128	0xbe1cc9c0	-0.15311337
129	0x3dc6567b	0.096844636
130	0x3ce1c49d	0.027559573
131	0xbd198ce0	-0.037487864
132	0xbd577845	-0.052604932
133	0xbdee9f13	-0.11651435
134	0xbdc4e875	-0.0961465
135	0xbc407ac4	-0.01174802
136	0xbd0cb8fe	-0.03435611
137	0xbd43bbb6	-0.047786437
138	0xbae07f06	-0.00171277
139	0xbdc00ecc	-0.09377822
140	0xbd922639	-0.07136197
141	0x3ad98854	0.0016596415
142	0xbdaf694b	-0.08565005
143	0xbdb11c5a	-0.08647986
144	0xbd4dc874	-0.050239995
145	0xbe0f663e	-0.14003846
146	0xbdbbd18e	-0.09170829
147	0xbce6b3a3	-0.02816183
148	0x3ca6e5f2	0.020373318
149	0xbd8a4584	-0.0675154
150	0xbda3e929	-0.08003456
151	0xbd87a6ba	-0.066235974
152	0xbda35034	-0.07974282
153	0xbb8ef73b	-0.0043629683
154	0xbca9c435	-0.020723442
155	0xbe07ffd8	-0.1328119
156	0xbcf8cfee	-0.030372586
157	0xbd8e490a	-0.06947525
158	0xbd5f8fd7	-0.054580536
159	0xbc8e6b08	-0.01738502
160	0xbd92b143	-0.07162716
161	0x3c811390	0.015756398
162	0xbd9f85c4	-0.07789186
163	0xbe1f0d8f	-0.15532516
164	0xbde1d33c	-0.11026618
165	0xbd3120fa	-0.04324434
166	0xbced846a	-0.028993804
167	0x3c8cda31	0.017193886
168	0xbda0468a	-0.07825954
169	0xbd476192	-0.048677035
170	0xbbe17fd9	-0.0068816957
171	0xbd74f5e1	-0.0598048
172	0xbbfa9dc2	-0.0076482007
173	0x39f52bdd	0.00046762722
174	0xbc7c830a	-0.0154121015
175	0xbcb64ef1	-0.02225444
176	0x3c72e779	0.014825695
177	0x3ce66d87	0.028128399
178	0x3b7bd324	0.003842541
179	0xbce515dd	-0.027964527
180	0x3dd3a0ac	0.1033338
181	0x3d8b8c51	0.068138726
182	0xbcf34aff	-0.029698847
183	0x3d71ae49	0.059004102
184	0x3d251a17	0.040308084
185	0xbd4f8a46	-0.050668977
186	0xbdd87c2b	-0.10570558
187	0xbd1c4e17	-0.03816041
188	0x3c42937d	0.011875984
189	0xbdab60d8	-0.08368081
190	0xbd2308b3	-0.039803218
191	0xbd2f5ebf	-0.042814966
192	0xbd1a7d41	-0.037717108
193	0xbd4d0b9c	-0.0500599
194	0xbd027fb0	-0.031860054
195	0xbdbaf14e	-0.091280565
196	0xbdbdc29f	-0.09265637
197	0x3b9e108d	0.0048237504
198	0x3c80e853	0.01573578
199	0xbcaab3a8	-0.02083762
200	0xbd6b77b5	-0.05748721
201	0x3b6d7bb8	0.0036237072
202	0xbd86fd6b	-0.065913044
203	0xbcbf5e24	-0.02336032
204	0x3bae51d5	0.0053198137
205	0xbc073ceb	-0.00825427
206	0xbd619357	-0.055072155
207	0xbd46871a	-0.048468687
208	0xbc06962b	-0.008214514
209	0xbdf0a9a2	-0.11751105
210	0x3c84865a	0.016177345
211	0xbd8eb938	-0.069689214
212	0xbd8893fb	-0.0666885
213	0xbd646ee8	-0.05576983
214	0xbde6183b	-0.1123509
215	0xbd5a8062	-0.05334509
216	0x3d22cc1f	0.039745446
217	0x3b4c1156	0.0031138263
218	0xbdc74669	-0.097302265
219	0xbdab2b5c	-0.083578795
220	0xbd780612	-0.060552664
221	0xbc3a9ca5	-0.011389886
222	0xbda9beb5	-0.082883276
223	0xbd38894e	-0.04505282
224	0x3c2b8977	0.010469786
225	0xbd31bddc	-0.043393955
226	0x3cc953c2	0.024576072
227	0xbd8f2fad	-0.06991515
228	0xbc8849c2	-0.016636733
229	0x3dbff55e	0.09372972
230	0xbe0347bf	-0.12820338
231	0xbd2da7d8	-0.042396396
232	0x3e17394e	0.14767954
233	0xbd253265	-0.040331263
234	0xbb42d972	-0.0029731658
235	0x3ca15455	0.019693533
236	0x3d74d8bb	0.059777003
237	0x3ccfb7e8	0.025356248
238	0x3d39f8e7	0.045403387
239	0x3d512296	0.051058374
240	0x3d2ce3da	0.042209484
241	0xbd1aa770	-0.037757337
242	0x3d101e25	0.035184998
243	0x3d1952ba	0.03743241
244	0xbad56429	-0.001628046
245	0xbdd1bcdb	-0.102410994
246	0xbdc6e032	-0.097107306
247	0xbd6df1de	-0.05809199
248	0xbd60491f	-0.054757234
249	0xbe057611	-0.1303332
250	0xbd98d27b	-0.07462021
251	0xbd9e0f1f	-0.07717728
252	0x3d19a367	0.03750935
253	0xbd9738d9	-0.0738389
254	0xbd5a3b99	-0.053279493
255	0xbd3bc729	-0.04584423

conv_stack.4.bias f4 [32]
0	0xbc5d6c91	-0.013514654
1	0x3f1dcc23	0.6163961
2	0xbdfb2032	-0.12262
3	0xbd65f069	-0.056137476
4	0xbd980add	-0.07423947
5	0xbd456f62	-0.048201926
6	0xbd4d1554	-0.05006917
7	0xbe760e72	-0.24028948
8	0xbcbd4a8f	-0.023106841
9	0xbd836d69	-0.06417353
10	0x3ea1624e	0.31520313
11	0x3dfbe050	0.122986436
12	0xbe1cbd88	-0.15306675
13	0x3b91908c	0.00444228
14	0x3daa58c7	0.08317714
15	0xbda52071	-0.08062828
16	0xbd927b67	-0.071524434
17	0x3d0d8dba	0.03455899
18	0x3b8a89f5	0.0042278715
19	0x3ea6151f	0.3243799
20	0x3e21f620	0.15816545
21	0x3e4a0274	0.19727498
22	0xbe3bd691	-0.1834357
23	0x3e8564ba	0.2605341
24	0xbe050fc5	-0.12994297
25	0x3df45046	0.119293734
26	0xbe15b9c0	-0.14621639
27	0xbd9ee4c5	-0.07758478
28	0xbe99a11e	-0.30005735
29	0xbfa789c2	-1.3088915
30	0xbdc27c9a	-0.09496422
31	0xbdbf7b09	-0.09349639

conv_stack.7.weight f4 [32, 32, 3, 3]
0	0xbdcd1df0	-0.10015476
1	0xbdc516c1	-0.096234806
2	0xbdc5a855	-0.096512474
3	0xbc4fe680	-0.012689233
4	0xbe2a733e	-0.16645524
5	0x3d862acc	0.065511316
6	0xbe5bf4e7	-0.21480142
7	0xbdf51e26	-0.11968641
8	0xbd15a9f4	-0.036539033
9	0xbdbae244	-0.09125188
10	0x3de0f65e	0.10984491
11	0x3dc6c628	0.09705764
12	0xbe4b9caf	-0.19883989
13	0xbe0632cb	-0.13105313
14	0x3db5566c	0.08854374
15	0xbcba013a	-0.022705663
16	0xbdf64321	-0.120245226
17	0xba8641d1	-0.0010243003
18	0x3cde86f9	0.02716397
19	0x3ce6d6a1	0.028178515
20	0xbd24530e	-0.04011827
21	0xbd216d98	-0.039411157
22	0xbcc744ef	-0.024324862
23	0x3c53261e	0.012887506
24	0xbc84ce25	-0.016211579
25	0x3c9c1001	0.0190506
26	0x3ccfece1	0.025381507
27	0xbd70abcb	-0.058757585
28	0x3a812f87	0.0009856083
29	0xbd9145de	-0.07093404
30	0xbca96925	-0.02068002
31	0xbd6ceee2	-0.057845004
32	0xbbdb5671	-0.006693654
33	0xbc7acf81	-0.015308262
34	0x3c00a875	0.007852663
35	0xbd34bc6b	-0.044125002
36	0xbd1deeb0	-0.03855771
37	0xbd9f09d6	-0.07765548
38	0xbc442875	-0.011972536
39	0x388f73f5	6.84037e-05
40	0xbd91cb7c	-0.0711889
41	0xbd066b4e	-0.032817177
42	0xbd9e7655	-0.07737414
43	0xbd7db65a	-0.061941482
44	0xbc8b9288	-0.017037645
45	0xbd9337b8	-0.07188362
46	0x3ab376ed	0.0013692059
47	0x3cf8a79d	0.030353362
48	0x3d02db16	0.031947218
49	0x3b8956f9	0.004191276
50	0x3b966263	0.0045893653
51	0x3cd5c8cb	0.026096722
52	0x3d2499f1	0.040185872
53	0x3d32f197	0.04368743
54	0x3b7b68be	0.0038361992
55	0xbd606779	-0.05478618
56	0x3c4cb453	0.0124941645
57	0x3d46083a	0.04834769
58	0xbce42e06	-0.027853977
59	0xbcdff634	-0.027339078
60	0x3d997900	0.07493782
61	0xbd3fd177	-0.04683062
62	0x3d27035f	0.0407747
63	0xbbc1f91d	-0.005919589
64	0xbd11894e	-0.035531335
65	0xbd639142	-0.05555845
66	0x3bb9c1e0	0.0056688637
67	0xbb8021ef	-0.003910295
68	0xbdae5540	-0.08512354
69	0xbd603a2f	-0.05474299
70	0xbd4adef3	-0.049529027
71	0xbca6b63b	-0.020350566
72	0xbda5e202	-0.08099748
73	0xbd959da6	-0.0730546
74	0xbd769202	-0.060197838
75	0xbd919eb4	-0.07110348
76	0x3c1b2d30	0.009471223
77	0x3c8f3693	0.017482078
78	0xbc215a1c	-0.009848144
79	0xbc81e304	-0.01585532
80	0xbd0acc1e	-0.033886068
81	0xbd8d4887	-0.06898599
82	0x3b45f0e2	0.0030203392
83	0xbd06dc6a	-0.032925047
84	0xbd576ba5	-0.052592892
85	0xbd7a051c	-0.06104003
86	0xbd854585	-0.065074004
87	0xbdd39689	-0.10331447
88	0xbc661439	-0.014042907
89	0xbd1047a7	-0.035224583
90	0xbe97e205	-0.29664627
91	0xbebbab21	-0.36653998
92	0x3e0123fe	0.12611386
93	0xbef2fc69	-0.474582
94	0xbe03042e	-0.12794563
95	0xbdda9922	-0.10673739
96	0x3e2f6ba7	0.1713091
97	0xbd3c4168	-0.045960814
98	0x3ceb0f38	0.02869378
99	0xbe38319a	-0.17987671
100	0xbd0fb76b	-0.03508703
101	0xbdb69076	-0.089142725
102	0x3cf72ee7	0.030173732
103	0xbd3357de	-0.04378497
104	0xbd898d53	-0.067164086
105	0x3ddaf6c7	0.106916
106	0x3e802a7f	0.25032422
107	0x3cfc3c46	0.03079046
108	0xbdd0f87f	-0.10203647
109	0xbca43b91	-0.020047935
110	0xbd6579d3	-0.056024384
111	0xbc0c2b1a	-0.008555198
112	0xbbb3d056	-0.005487482
113	0xbca5fcf8	-0.020262226
114	0xbd9f7cf5	-0.077875055
115	0x3ca8c876	0.0206034
116	0xbd89f650	-0.067364335
117	0x3de7df73	0.113219164
118	0x3d65fd67	0.056149866
119	0x3de48183	0.11157515
120	0xbe1b9548	-0.15193665
121	0xbcda588c	-0.02665355
122	0x3d830edf	0.06399321
123	0xbe48ad91	-0.1959746
124	0xbb231cd6	-0.0024889014
125	0x3d8a98ae	0.067674026
126	0x3bc345ac	0.0059592333
127	0xbd010830	-0.03150195
128	0xbb9ae2c2	-0.0047267387
129	0x3ca4e97d	0.020130867
130	0xbcb9f32e	-0.022698965
131	0x3cc0ed58	0.023550674
132	0xbc9a206c	-0.018814288
133	0xbb9ce71c	-0.0047882926
134	0x3cb54f6b	0.022132596
135	0xbd12b72a	-0.03581921
136	0xbd8e2b87	-0.06941896
137	0xba0b777c	-0.0005320234
138	0xbc75b494	-0.014996666
139	0x3c6ae2f5	0.014336337
140	0x397ad265	0.00023920236
141	0xbd34605d	-0.04403721
142	0xbd410892	-0.047127314
143	0xbc48a327	-0.01224593
144	0x3d051412	0.032489844
145	0xbd5ac954	-0.053414658
146	0xbd05bafd	-0.03264903
147	0x3cb39832	0.021923158
148	0xbdad3d51	-0.08458961
149	0x3c5368c8	0.0129034
150	0x3c6bb5db	0.014386619
151	0xbd79a5ca	-0.060949124
152	0x3b1e791b	0.0024181071
153	0xbd3e225c	-0.046419486
154	0xbe820008	-0.2539065
155	0xbeddc995	-0.43317857
156	0x3e835a52	0.25654846
157	0x3dc67fe4	0.09692362
158	0x3e696925	0.22794016
159	0x3dd04d4a	0.10170992
160	0x3e12a637	0.14321218
161	0xbd386397	-0.04501685
162	0xbe35251b	-0.17689936
163	0xbe02d7c1	-0.12777616
164	0x3d34d2c9	0.044146333
165	0xbda33c37	-0.079704694
166	0xbdb5a2d9	-0.08868951
167	0x3c3e818f	0.011627569
168	0xbcf0ffc0	-0.029418826
169	0x3e76d3b5	0.24104197
170	0xbdd1b20f	-0.1023904
171	0xbdcc842d	-0.09986148
172	0x3e424d68	0.1897484
173	0xbcf89d95	-0.030348578
174	0xbd52d92b	-0.05147664
175	0x3e294728	0.1653105
176	0xbe03eec1	-0.12884046
177	0x3ecc5349	0.39907292
178	0x3ec4846a	0.38382274
179	0xbdd03a6c	-0.10167393
180	0x3e31e6ad	0.17373152
181	0x3ea38340	0.31936073
182	0xbda42b15	-0.0801603
183	0x3d44e5d6	0.04807075
184	0x3eab1a11	0.33418325
185	0xbd1df4c6	-0.038563512
186	0xbe6ad0e6	-0.22931251
187	0x3e55062e	0.20803139
188	0xbd26c940	-0.04071927
189	0xbe576e97	-0.2103828
190	0x3d4e0c98	0.05030498
191	0xbd280b9e	-0.041026704
192	0xbe840604	-0.2578584
193	0xbec353ec	-0.38149965
194	0xbea14ed0	-0.31505442
195	0xbdae984f	-0.08525144
196	0xbe951cb4	-0.2912346
197	0xbe9b55f9	-0.3033903
198	0xbd672386	-0.056430362
199	0xbd12905d	-0.035782207
200	0x3d61df4f	0.055144604
201	0xbd354b81	-0.04426146
202	0x3ce43cdb	0.02786105
203	0xbd0e9556	-0.034810387
204	0x3a0b976a	0.00053249917
205	0xbd33d566	-0.043904684
206	0x3d3c7e60	0.046018958
207	0x3db064d0	0.086129785
208	0x3edf9dcf	0.43675086
209	0x3d64f76e	0.05590003
210	0xbda63e01	-0.08117295
211	0x3edebf1a	0.43505174
212	0x3d45ebad	0.04832046
213	0xbc64562b	-0.01393656
214	0x3e888dad	0.2667059
215	0x3c12b6cc	0.008954715
216	0xbd6567be	-0.05600714
217	0x3c0d322c	0.008617919
218	0xbc26fb2b	-0.010191719
219	0xbb976ebb	-0.0046213544
220	0xbc2e5e36	-0.010642579
221	0xbd4e367f	-0.05034494
222	0xbd849479	-0.064736314
223	0x3ced0182	0.028931383
224	0x3b86b35c	0.004110737
225	0x3dac03c4	0.08399156
226	0x3d1bf7d4	0.038078144
227	0x3ac3d5d2	0.0014941043
228	0xbd2869b4	-0.04111643
229	0xbd83d050	-0.06436217
230	0x3bf0319f	0.007330134
231	0x3e3b63d2	0.18299797
232	0x3ebcae9d	0.3685197
233	0xbda042a3	-0.0782521
234	0xbd581048	-0.052749902
235	0xbd0678af	-0.032829937
236	0x3c764b66	0.015032625
237	0x3d008ca8	0.03138414
238	0x3cdb9770	0.02680561
239	0xbc05e033	-0.008171129
240	0x3af50180	0.0018692464
241	0x3caaef55	0.020866076
242	0xbcf5bbf8	-0.029996857
243	0xbc7f1705	-0.015569453
244	0xbce02817	-0.027362866
245	0xbc15b252	-0.009136753
246	0xbd9ff9db	-0.07811328
247	0xbdc09838	-0.094040334
248	0xbd7b4f52	-0.061354943
249	0xbce5f2cf	-0.028069882
250	0x3ca3723a	0.019951928
251	0xbd30a87b	-0.043129425
252	0xbdc67b54	-0.09691492
253	0xbd651dc7	-0.0559366
254	0x3ce1f96c	0.027584754
255	0xbd9872d1	-0.074437745

conv_stack.7.bias f4 [32]
0	0xbe000d6f	-0.12505125
1	0xbf3babb3	-0.7330887
2	0xbe6d8618	-0.23195684
3	0xbe3bff2f	-0.18359064
4	0xbcbec5f2	-0.023287747
5	0xbedf7ebd	-0.4365138
6	0xbe8c919a	-0.27454835
7	0xbd282f1f	-0.041060563
8	0xbc13dd3d	-0.009024915
9	0xbe181da2	-0.14855054
10	0xbe05ba7f	-0.13059424
11	0xbb334691	-0.0027355293
12	0xbe254a75	-0.16141684
13	0x3c5abd37	0.013350776
14	0xbdc9bd97	-0.098506145
15	0x3c7647c3	0.015031758
16	0x3b805ccc	0.0039173122
17	0xbe00a4e6	-0.12562904
18	0xbd347104	-0.044053093
19	0xbc2bbb49	-0.010481664
20	0xbe2bf9b1	-0.16794468
21	0x3a4a3168	0.00077130506
22	0xbf427158	-0.759542
23	0x3d1981ca	0.037477292
24	0xbf0ecc97	-0.5578093
25	0xbed6a3ea	-0.41921932
26	0x3c481028	0.012210883
27	0x3e1cf9fa	0.15329733
28	0xbd2bbc8d	-0.041927863
29	0x3e849da5	0.25901523
30	0xbb1d5d08	-0.002401175
31	0xbe0737b4	-0.13204843

conv_stack.11.weight f4 [64, 32, 4, 4]
0	0xbceb56ff	-0.028728006
1	0xbd030ddc	-0.03199564
2	0x3bc065d9	0.005871516
3	0x3c949bfc	0.018140785
4	0xbb89dc2f	-0.004207156
5	0xbd2f650a	-0.042820968
6	0xbd12d170	-0.035844266
7	0x3c8184e7	0.015810443
8	0x3cc404da	0.023928095
9	0xbb163df1	-0.0022925104
10	0xbc25b480	-0.010113835
11	0x3c38b70d	0.011274111
12	0xbd4d2421	-0.050083283
13	0xbce399f7	-0.027783377
14	0x3be3274d	0.0069321753
15	0xbce88f4f	-0.028388647
16	0xbdae5303	-0.08511927
17	0xbede0f51	-0.4337106
18	0xbf041e9e	-0.5160922
19	0xbdeaaa38	-0.11458248
20	0xbe6f31be	-0.23358819
21	0xbf666fb6	-0.9001421
22	0xbf65f791	-0.8983088
23	0xbe4758b8	-0.19467437
24	0xbed52475	-0.41629377
25	0xbf595ce4	-0.84907365
26	0xbf457b3f	-0.77141184
27	0xbd8073a0	-0.06272054
28	0xbda6bb7b	-0.08141228
29	0xbe800529	-0.25003937
30	0xbda1585c	-0.07878181
31	0xbccd08ae	-0.025028553
32	0x3cb8f6a6	0.022578549
33	0xbcd76124	-0.026291437
34	0xbc81673a	-0.015796293
35	0xbc80f97b	-0.015743962
36	0xbb7cf956	-0.0038600764
37	0x396e6dc8	0.00022738345
38	0xbca82500	-0.020525455
39	0x3cd9763a	0.026545633
40	0x3c7910de	0.015201775
41	0x3c15e17a	0.009147996
42	0xbc6b1007	-0.014347083
43	0x3cdb67e6	0.026782941
44	0xbc960a3f	-0.018315433
45	0x3b113db0	0.0022162013
46	0x3d0cfb62	0.034419425
47	0xbcd160c7	-0.025558842
48	0x3cc002ae	0.023438778
49	0xbd4f58a6	-0.05062165
50	0xbd0f30d3	-0.03495867
51	0xbd037f06	-0.03210356
52	0x3b5c9b43	0.003366188
53	0xbdb6fa7e	-0.08934496
54	0xbdad15ab	-0.084513985
55	0xbd0f63d9	-0.03500733
56	0xbaea35de	-0.0017868837
57	0xbcdb973d	-0.026805514
58	0xbd90791b	-0.07054349
59	0x3c2f512c	0.010700505
60	0xbd34e6d2	-0.04416544
61	0xbc0a4f5c	-0.008441772
62	0xbd89e006	-0.06732182
63	0xbc2a5d80	-0.010398269
64	0x3b023227	0.001986632
65	0xbc6b64f4	-0.014367331
66	0x3c7de323	0.015496048
67	0x3cb7ccc5	0.022436509
68	0x3b68f21b	0.0035544697
69	0xbd252b42	-0.040324457
70	0x3cb9862c	0.022646986
71	0x3c93de37	0.018050296
72	0xbd185dc5	-0.0371988
73	0x3ca4a382	0.020097498
74	0xbc577404	-0.013150219
75	0xbca31fb2	-0.019912574
76	0x3cb20bde	0.021734174
77	0xbca5e96d	-0.020252908
78	0xbcf2ea6b	-0.029652795
79	0x3b765d51	0.0037592242
80	0xba60d905	-0.00085772603
81	0xbf29cf31	-0.66331774
82	0xbf2efff2	-0.6835929
83	0xbe8f0f70	-0.27941465
84	0xbdbd74e8	-0.09250814
85	0xbef7adc9	-0.48374775
86	0xbee5f03f	-0.44909856
87	0xbe223fa0	-0.15844584
88	0xbd90d96d	-0.07072721
89	0xbe7ac964	-0.24490887
90	0xbe670a73	-0.2256258
91	0xbb17d53e	-0.0023167874
92	0xbd5d5b10	-0.054041922
93	0x3d0a3396	0.033740602
94	0x3af09aea	0.0018356715
95	0xbc4a0f30	-0.012332723
96	0xbde9edef	-0.11422335
97	0xbe985b05	-0.29756942
98	0xbe92cf8e	-0.28673977
99	0x3ad4913d	0.0016217601
100	0xbe442841	-0.1915598
101	0xbeacfc74	-0.33786356
102	0xbeac76cd	-0.33684388
103	0xbe0cd285	-0.13752182
104	0xbe4f1f20	-0.20226717
105	0xbea007d1	-0.31255963
106	0xbea2c5f0	-0.3179164
107	0xbda84521	-0.0821631
108	0xbd0c990b	-0.03432564
109	0xbd42f7dd	-0.047599662
110	0xbdfc6700	-0.12324333
111	0x3cb575df	0.022150932
112	0xbd31a776	-0.043372594
113	0xbc933615	-0.017970124
114	0xbc1d4e1c	-0.009601142
115	0xbcc13d06	-0.023588669
116	0x3d0dd710	0.034628928
117	0xbc89662f	-0.016772358
118	0xbd472393	-0.04861791
119	0x3c8b4156	0.016998928
120	0xbce9bf5e	-0.028533634
121	0xbd17e169	-0.037080202
122	0xbcf75d5a	-0.03019588
123	0xbaaac563	-0.0013028797
124	0x3d272865	0.040810008
125	0xbcd212bc	-0.025643699
126	0xbd0f4316	-0.034976088
127	0xbbd2f9ea	-0.0064384835
128	0x3d0a04ef	0.03369611
129	0x3cd41e1d	0.025893265
130	0xbd35fb59	-0.044429157
131	0xbc8bc897	-0.017063422
132	0x3d103e20	0.035215497
133	0xbc4896d3	-0.012242991
134	0xbcd7a309	-0.026322858
135	0xbcc83a58	-0.024441883
136	0x3d02b624	0.031911984
137	0x3c9b74d6	0.01897661
138	0x3c63036d	0.013855797
139	0x3ceb9f8c	0.028762601
140	0x3d183231	0.03715724
141	0x3bdaae80	0.006673634
142	0x3cc164a2	0.023607556
143	0xbc605076	-0.013691058
144	0xbd2eeda5	-0.042707104
145	0xbdd527d7	-0.104079895
146	0xbde6f843	-0.11277821
147	0x3c658489	0.01400865
148	0xbcf1c808	-0.029514328
149	0xbe2c79b5	-0.16843303
150	0xbe4226a5	-0.18960054
151	0xbde2559f	-0.11051487
152	0xbdb73299	-0.089451976
153	0xbe29a9b0	-0.16568637
154	0xbe085ceb	-0.13316695
155	0xbd8239d7	-0.06358688
156	0x3c60a9b0	0.013712332
157	0xbd583270	-0.052782476
158	0xbd6371b4	-0.055528358
159	0xbd1eaa4e	-0.038736634
160	0x3ce3787f	0.027767418
161	0xbc90cd79	-0.017676102
162	0xbc74f167	-0.014950133
163	0xbc4a74a6	-0.012356913
164	0x3cd330d4	0.025780119
165	0x3cfcace9	0.030844169
166	0xbc494326	-0.012284076
167	0x3ccf196b	0.025280675
168	0xbd52407b	-0.051331025
169	0x3c9dc1fc	0.019257538
170	0xbc43399a	-0.011915589
171	0xbd38bc05	-0.045101184
172	0xbc02a6eb	-0.007974367
173	0xbd03d3b8	-0.032184333
174	0xbd2a8434	-0.041629985
175	0x3a31bbb9	0.0006779987
176	0x3bf34c42	0.007424862
177	0x3caadd43	0.020857459
178	0x3caafe9c	0.02087336
179	0xbb17cce9	-0.0023162907
180	0x3c33d5f1	0.010976301
181	0xbcf90fd0	-0.030403048
182	0xbc20ee81	-0.009822489
183	0x3c7a2949	0.015268632
184	0xbcda4c56	-0.026647728
185	0xbd31e71d	-0.043433297
186	0x3aaf2ce3	0.0013364818
187	0xbba96eb4	-0.0051706675
188	0x3c1cea8d	0.009577406
189	0xbd3d61ec	-0.046235964
190	0xbc6cebcc	-0.014460515
191	0xbcdd3f5a	-0.027007747
192	0x3cc8ca8a	0.02451064
193	0x3ccba7e2	0.024860326
194	0xbc2a62bb	-0.010399516
195	0xbc00c02b	-0.007858316
196	0x3c4b410c	0.012405645
197	0xbd8ebaba	-0.06969209
198	0xbe67f687	-0.22652636
199	0xbe01e177	-0.12683664
200	0xbcf502ee	-0.029908624
201	0xbe206fb2	-0.15667608
202	0xbe903322	-0.2816401
203	0xbd49379e	-0.049125306
204	0xbcf53464	-0.029932208
205	0xbdfcea56	-0.123493835
206	0xbdeb31db	-0.114841186
207	0x3927d56e	0.0001600587
208	0xbbf46de6	-0.00745939
209	0xbcbae32c	-0.022813402
210	0xbbe960eb	-0.007122149
211	0x3cd107d9	0.025516437
212	0x3d0b68c9	0.034035478
213	0x3b409721	0.0029386955
214	0xbc54c9fd	-0.012987611
215	0x3cf4f324	0.029901095
216	0x3c6ae664	0.014337156
217	0xbcb27ec8	-0.02178897
218	0xbbbd992f	-0.005786083
219	0x3c62652a	0.013818065
220	0x3c7a1976	0.015264859
221	0xbd1d8607	-0.038457897
222	0xbd2bf6e3	-0.041983496
223	0xbc9993a1	-0.018747153
224	0x3985f169	0.000255476
225	0xbd5fbc47	-0.054622915
226	0xbd339717	-0.043845262
227	0xbd002d77	-0.03129336
228	0xbd6780c0	-0.05651927
229	0xbd6064c9	-0.054783616
230	0xbca3a939	-0.019978153
231	0xbd86d983	-0.06584456
232	0xbd412e8a	-0.047163524
233	0xbd047343	-0.032336485
234	0xbd0e0db1	-0.034681026
235	0xbd5fc9ec	-0.054635927
236	0xbd4d791e	-0.050164334
237	0xbbbc2bd2	-0.0057425285
238	0xbcfec176	-0.031098109
239	0xbcc5cb23	-0.024144715
240	0x3c8f4e27	0.01749332
241	0x3cce1d16	0.025160354
242	0xbcc45881	-0.023967983
243	0xbccd51ca	-0.025063414
244	0x3c0ef0d8	0.008724414
245	0xbcd1e4a4	-0.02562172
246	0xbd115957	-0.03548559
247	0xbcae3982	-0.021267656
248	0xbc0ee3fd	-0.008721349
249	0xbd0a5894	-0.03377588
250	0x3b9feb2f	0.004880331
251	0x3d0102f3	0.031496953
252	0xbc9aa6b9	-0.018878328
253	0xbd3c2b44	-0.0459397
254	0xbcd87fc0	-0.026428103
255	0xbce2f6f0	-0.02770564

conv_stack.11.bias f4 [64]
0	0xbdd0533d	-0.101721264
1	0xbdcf5f2e	-0.10125576
2	0xbd962756	-0.073317215
3	0xbdaef146	-0.08542113
4	0x3eb0606a	0.34448558
5	0x3e1c1842	0.15243629
6	0x3efb5e02	0.4909516
7	0xbe27282e	-0.16323921
8	0xbd8f7c06	-0.070060775
9	0xbe859d43	-0.26096544
10	0xbe598236	-0.21241078
11	0xbdd4aa9e	-0.10384105
12	0xbe40e241	-0.18836309
13	0xbeb3d091	-0.3512006
14	0xbd68bf15	-0.056822855
15	0xbe753cd4	-0.23948985
16	0xbe0aa432	-0.13539198
17	0xbeb1467d	-0.3462409
18	0xbd8a8181	-0.06762982
19	0xbe3ea3a8	-0.18617117
20	0xbbad7b5d	-0.005294247
21	0xbe47f694	-0.19527656
22	0x3ccd8245	0.025086531
23	0xbdbf3d43	-0.093378566
24	0xbe704e31	-0.23467328
25	0xbdb886ae	-0.09010063
26	0xbdbb43fc	-0.09143826
27	0xbd9458ff	-0.07243537
28	0xbe06f150	-0.13177991
29	0x3f114da7	0.56759113
30	0xbe90ee88	-0.28306985
31	0xbdfd2b68	-0.12361795
32	0xbe0a7096	-0.1351951
33	0x3ed31795	0.4122893
34	0x3e84944d	0.25894395
35	0xbd86d514	-0.0658361
36	0xbe7415cd	-0.23836441
37	0xbca52bbb	-0.020162454
38	0x3e046bf7	0.1293181
39	0xbdb51434	-0.08841744
40	0xbe16d7e8	-0.14730799
41	0xbe0c6f38	-0.13714302
42	0xbbcfb0dc	-0.006338222
43	0x3e85433c	0.26027858
44	0xbe98e20b	-0.29859957
45	0xbda719c2	-0.0815921
46	0xbe2f1567	-0.17098008
47	0x3f292afa	0.660812
48	0x3cc2e3cd	0.023790265
49	0x3c11dac0	0.008902252
50	0xbe9fdf4a	-0.31225044
51	0x3ddcccb3	0.10781231
52	0x3ea31bee	0.31857246
53	0xbdc4aa08	-0.096027434
54	0xbec5a3a4	-0.3860141
55	0xbdafa320	-0.085760355
56	0xbcb80ba7	-0.022466494
57	0xbe2988b3	-0.16556053
58	0xbe0dd219	-0.13849677
59	0x3d99c07d	0.07507417
60	0x3dc23ba1	0.094840296
61	0x3e9c4b44	0.30526173
62	0xbd976ae6	-0.07393436
63	0xbcc03a0d	-0.02346518

linear.weight f4 [10, 64]
0	0x3c36304b	0.011119912
1	0xbd298313	-0.041384768
2	0x3da05db0	0.078303695
3	0xbe45aec2	-0.19304946
4	0x3dd45d2a	0.10369332
5	0xbeade8b0	-0.3396659
6	0x3b07cc5f	0.002072118
7	0xbd5e2232	-0.05423183
8	0x3e9f5c47	0.3112509
9	0x3ebb45b6	0.36576623
10	0x3dd59fb9	0.10430855
11	0x3d99ae36	0.07503931
12	0x3db5708e	0.08859359
13	0x3f23e6e2	0.64024174
14	0xbe382423	-0.17982535
15	0x3d4e33de	0.050342433
16	0x3e4d23c3	0.20033173
17	0x3f3b3707	0.7313084
18	0x3dd15b96	0.10222547
19	0x3e7f1ec1	0.24914075
20	0x3d89752a	0.067118004
21	0x3f2cf9ab	0.67568463
22	0xbdb7938d	-0.0896369
23	0x3deb5ea1	0.114926584
24	0x3e8a80ca	0.27051383
25	0x3e62a6f3	0.22133999
26	0x3e4984b7	0.19679533
27	0xbc461e85	-0.012092237
28	0xbe1dc39e	-0.15406653
29	0xbe98fb66	-0.29879302
30	0x3e84566f	0.25847194
31	0xbd61633c	-0.055026278
32	0x3cb699d4	0.022290148
33	0xbdcee647	-0.10102516
34	0x3dd4bb07	0.10387235
35	0xbd734db9	-0.059400294
36	0x3ee14b50	0.4400277
37	0xbd965daa	-0.07342084
38	0xbf0fcbe6	-0.561705
39	0x3e37915a	0.17926541
40	0x3d1b51eb	0.03791992
41	0xbcc73b98	-0.024320409
42	0x3eaf05a6	0.34183997
43	0x3c82ff77	0.015990956
44	0x3ec7eee3	0.39049444
45	0x3e04dcb0	0.1297481
46	0x3e874648	0.26420808
47	0xbef48936	-0.47760934
48	0xbe024bb4	-0.12724191
49	0xbd0dc90e	-0.03461557
50	0x3df1df27	0.11810141
51	0x3f72bd5a	0.9482018
52	0xbf20b45e	-0.6277522
53	0x3d8fb295	0.07016484
54	0x3f2ff62b	0.68735
55	0x3e3589d6	0.17728361
56	0x3ccf9ae2	0.025342409
57	0x3e4a476c	0.19753808
58	0x3cff2c16	0.031148952
59	0x3eb2c12e	0.3491301
60	0x3f151e44	0.58249307
61	0xbd5ef7b0	-0.054435432
62	0xbdc3a01c	-0.09552023
63	0x3e2b3574	0.1671961
64	0x3e85f87c	0.2616614
65	0xbd6f30e3	-0.05839623
66	0xbebb6867	-0.3660309
67	0x3e344e35	0.17607959
68	0x3e2b7433	0.16743545
69	0x3a3e7436	0.00072652416
70	0x3f5df73d	0.8670538
71	0x3e00486c	0.12527627
72	0x3e98661d	0.29765406
73	0x3da8cdd3	0.08242383
74	0x3d7b214c	0.06131105
75	0x3e199167	0.14996873
76	0xbd1b3298	-0.037890047
77	0x3e90d221	0.28285316
78	0xbdfb9a29	-0.12285263
79	0x3e240435	0.1601723
80	0xbee4dbf3	-0.44699058
81	0x3df05fea	0.11737044
82	0x3e5f085c	0.21780533
83	0x3e4410fb	0.19147103
84	0xbdf06917	-0.11738794
85	0xbe4acf36	-0.19805607
86	0x3f09e1ec	0.53860354
87	0xbdaef2da	-0.08542414
88	0x3dd8e81d	0.10591147
89	0x3db71f69	0.08941538
90	0xbd9e5b9c	-0.07732317
91	0xbe769558	-0.24080408
92	0xbf0463a9	-0.5171457
93	0x3f44d861	0.7689267
94	0xbe137df6	-0.14403519
95	0x3e016ebe	0.12639901
96	0xbdb16aee	-0.08662973
97	0xbf0585ad	-0.521571
98	0xbe4410f0	-0.19147086
99	0x3de55ab5	0.111989416
100	0xbc9224d5	-0.017839829
101	0xbe255d4f	-0.16148876
102	0xbddb7983	-0.10716536
103	0xbe2c9715	-0.16854508
104	0xbf02ce1b	-0.5109574
105	0xbe2c5162	-0.1682792
106	0x3eb3eeb0	0.35143042
107	0xbd244646	-0.04010608
108	0x3de955f4	0.113933474
109	0xbe1d4b45	-0.15360744
110	0x3c5874ed	0.013211471
111	0x3eb2b48a	0.34903365
112	0x3d311293	0.043230604
113	0xbe00f8df	-0.12594937
114	0x3d0163f5	0.031589467
115	0xbe72f9fc	-0.23728174
116	0xbf10a752	-0.5650531
117	0xbd976eec	-0.073942035
118	0x3e1715e6	0.14754447
119	0xbd7e58d0	-0.062096417
120	0xbc95cba6	-0.018285584
121	0x3d6d5a41	0.0579474
122	0xbd6913e8	-0.05690375
123	0xbe0dd25e	-0.1384978
124	0xbbd06c09	-0.006360535
125	0xbe8cc3ca	-0.27493125
126	0x3d7eeed2	0.062239476
127	0xbe43bf4d	-0.19115944
128	0xbd97ce25	-0.07412366
129	0xbca35f5b	-0.01994293
130	0xbdc2f088	-0.09518534
131	0x3db58f61	0.08865238
132	0x3e51e55a	0.20497647
133	0x3e737ff0	0.23779273
134	0x3d24b30a	0.040209807
135	0x3ef31900	0.4748001
136	0x3e6deaf7	0.23234163
137	0xbf8cab4e	-1.0989778
138	0xbe8a2f60	-0.2698927
139	0xbe12985e	-0.14315936
140	0xbf451f5d	-0.7700098
141	0x3f259567	0.64681095
142	0x3c08c2e5	0.008347248
143	0xbe753de5	-0.23949392
144	0xbe3a8401	-0.18214418
145	0x3e857de7	0.26072618
146	0x3bf7bb7b	0.007560191
147	0x3e5d48fb	0.21609871
148	0x3f1ddc11	0.6166392
149	0xbd808b8c	-0.062766165
150	0xbf222187	-0.6333241
151	0xbeb313b3	-0.34975967
152	0x3ea1149e	0.31461042
153	0xbf39169f	-0.7230014
154	0x3e039a8d	0.12851925
155	0xbdb2ae3f	-0.08724641
156	0x3d2c7fd3	0.04211409
157	0xbd9f1e6b	-0.07769474
158	0xbf9827f6	-1.1887195
159	0xbceb4869	-0.028721051
160	0xbf22e2cd	-0.6362732
161	0xbec8de5c	-0.39232147
162	0xbe6038d0	-0.21896672
163	0xbe3d71cf	-0.18500446
164	0xbfeb367e	-1.8376005
165	0xbbf6e342	-0.0075344155
166	0x3c7b2c9f	0.015330463
167	0x3e6cf952	0.23141983
168	0x3e9b2e0e	0.30308574
169	0xbf55160f	-0.83236784
170	0xbee4eb1f	-0.44710633
171	0xbf12c608	-0.5733342
172	0x3e8d6f29	0.2762387
173	0xbec0b1d5	-0.37635675
174	0xbfcc3c78	-1.5955954
175	0x3ede423f	0.43409917
176	0x3e3ba5a4	0.18324906
177	0xbd0b7682	-0.034048565
178	0xbf1a1e27	-0.6020226
179	0x3ad07191	0.0015902986
180	0xbe38a69b	-0.18032305
181	0xbe72cb58	-0.23710382
182	0xbfec9d8f	-1.8485583
183	0x3dd5d6cb	0.10441359
184	0x3d3c2b02	0.045939453
185	0xbea39b59	-0.31954458
186	0xbed8b7d6	-0.42327756
187	0x3ea7dde9	0.32786492
188	0x3dfe8768	0.124281704
189	0xbe87a06f	-0.2648959
190	0x3f556d49	0.8336988
191	0xbd7f50aa	-0.062332787
192	0x3c9a9c36	0.018873315
193	0x3d8d2f13	0.06893744
194	0x3d3cd924	0.04610552
195	0xbf95984b	-1.1687101
196	0xbe8038b1	-0.25043252
197	0x3bc92570	0.006138496
198	0x3d066f2e	0.032820873
199	0xbfbaf496	-1.4605892
200	0xbe662308	-0.22474301
201	0x3f3a9c59	0.7289482
202	0x3f888c4d	1.0667816
203	0x3e0f704f	0.14007686
204	0x3efb211c	0.49048698
205	0xc0106f41	-2.2567904
206	0x3ec188be	0.37799639
207	0x3d46d002	0.048538215
208	0xbe1d4592	-0.1535857
209	0xbfd9088f	-1.6955737
210	0x3e7e4726	0.24831828
211	0xc01b74fd	-2.4290154
212	0xbcd7c628	-0.026339605
213	0x3e99359d	0.29923716
214	0x3edd13b8	0.43179107
215	0x3e112e93	0.14177923
216	0xbff17f95	-1.886706
217	0x3f052f2e	0.52025115
218	0x3e4654ff	0.19368361
219	0x3ddbd8bd	0.10734699
220	0x3d887a9d	0.066640116
221	0xbe465b3f	-0.19370745
222	0x3f34bf6e	0.706046
223	0xbf853a8e	-1.0408494
224	0x3e8d829c	0.2763871
225	0x3f1ffa45	0.62491256
226	0xbeed0690	-0.4629407
227	0x3d9a0ae4	0.075216085
228	0x3f48c2ef	0.78422445
229	0x3dc74324	0.09729603
230	0xbdedba22	-0.11607768
231	0xbd6956c2	-0.056967504
232	0x3cd3e693	0.025866782
233	0x3ebc2b53	0.36751804
234	0xbc929604	-0.017893799
235	0x3cf49535	0.029856304
236	0xc00535ea	-2.0814157
237	0x3e36f0e3	0.17865328
238	0x3f352843	0.7076456
239	0x3ec4c391	0.38430455
240	0x3d98bf23	0.074583314
241	0xbec1c85f	-0.37848184
242	0x3ebefc51	0.37301877
243	0x3d528475	0.051395852
244	0x3f0077c7	0.50182766
245	0x3eac0ca3	0.3360339
246	0x3f70e410	0.94097996
247	0xbf0d69d6	-0.5523962
248	0x3dbb0d0f	0.0913335
249	0x3e8377a0	0.25677204
250	0x3e04dbff	0.12974547
251	0xbe801f51	-0.25023893
252	0x3e43af60	0.19109869
253	0x3eb5de13	0.35520992
254	0x3f12de2a	0.57370245
255	0x3d3c7f3e	0.046019785

linear.bias f4 [10]
0	0xbeb0774e	-0.34466022
1	0x3eac979e	0.33709425
2	0xbd8702a1	-0.06592298
3	0xbe85816b	-0.260753
4	0xbd0edf34	-0.03488083
5	0xbe814907	-0.25251028
6	0x3e9af227	0.30262873
7	0xbe635a33	-0.22202377
8	0x3e153acb	0.14573209
9	0xbd82d1ba	-0.063876584
