app/models/digit_logreg.pt (torch, 32507 bytes, 2 tensors)

linear.weight f4 [10, 784]
000000 13 ce 16 3d f6 f9 20 3c f1 82 90 3b 3c 57 e2 3c
       0.03681762 0.00982522 0.0044101407 0.027629487
000010 8c b2 9d 3b 94 e4 e5 3c d6 47 a3 3c d3 6f d0 3b
       0.004812544 0.028063096 0.019931715 0.0063609867
000020 ba 11 ba 3c 15 1b de 3c d0 00 fc 3b 3b 0b 5b bb
       0.02271353 0.027112523 0.0076905265 -0.0033423442
000030 26 71 c6 bb 39 53 a2 3c 54 ce f6 ba 85 18 ab bc
       -0.006055969 0.019815074 -0.0018829801 -0.020885715
000040 12 ff 33 bc 59 19 a5 3c 6f a0 aa 3c 24 a9 24 3c
       -0.0109861065 0.020153688 0.020828454 0.010050092
000050 65 a5 0f bb 3e c4 94 3c 41 11 d7 3c e4 41 c5 3c
       -0.0021918651 0.018159982 0.026253344 0.02407927
000060 df a6 1c 3d 7c 06 2d 3d 48 6e 65 3c 8d 67 97 bc
       0.03824508 0.042242512 0.014003344 -0.018481994
000070 81 7e a9 3c 82 e8 15 3b e2 c7 b4 3c 68 ef 5e bc
       0.020690205 0.002287418 0.022067968 -0.013606884
000080 a9 96 57 3c 55 8d c6 3a 8e 52 a4 3c 8e 01 78 3c
       0.013158479 0.0015148321 0.020058896 0.015137089
000090 42 23 29 bb e9 e7 42 ba b4 00 1c 3d b5 88 89 bc
       -0.0025808369 -0.000743507 0.038086608 -0.01678882
0000a0 52 e1 c0 3c 37 31 b9 bc 6d 35 d6 bc 37 75 6b bc
       0.023544941 -0.022606475 -0.026148522 -0.014371208
0000b0 61 ad 67 3c b5 a1 0e 3d 19 1b 26 3c 95 83 ee bb
       0.014140458 0.034822185 0.0101382965 -0.0072788694
0000c0 77 e1 dc bc 02 8c b9 3c a4 9b 1a 3d 29 dc 60 bc
       -0.026962979 0.022649769 0.037746087 -0.013724365
0000d0 41 33 f5 3c ec a9 b9 3c ae 52 1c 3d bb 02 62 3c
       0.029931666 0.022664033 0.038164787 0.013794596
0000e0 d2 66 4b 3c 81 ac 3a 3b cd 12 c1 3c 87 c6 37 bc
       0.012414651 0.0028484168 0.023568535 -0.011216766
0000f0 86 63 82 3c 6d 5f 85 bc 37 62 ad 3c ef b0 39 3d
       0.015916597 -0.016280854 0.021164997 0.045334753
000100 c0 93 3c 3d 3c b6 be 3c e6 99 4b bd 3b 32 42 bd
       0.046039343 0.023280255 -0.049707316 -0.047411185
000110 32 87 4f bd 70 b2 3c bd 74 c5 3e bd c1 ee 91 bc
       -0.05066604 -0.04606861 -0.046575025 -0.017814042
000120 4d 45 b7 3b b8 ea 02 bd 67 c6 0b 3d 71 7f 43 3b
       0.005592978 -0.031962126 0.034124758 0.00298306
000130 e8 c6 df 3c da 12 da bb cc c4 6b 3c 01 02 24 3b
       0.027316526 -0.0066550793 0.014390182 0.0025025608
000140 3a b5 c6 3c 6a 9e 4a 3b 08 25 b7 3c f5 01 15 bc
       0.024256337 0.0030917176 0.022356525 -0.009094705
000150 65 a6 22 3d 5c 2a 1b 3d 86 8f 42 3c 76 89 29 3d
       0.039709467 0.037882194 0.011875039 0.04139086
000160 13 f7 90 3c 58 ee 0b 3c d4 76 5c 3c 65 50 87 bc
       0.01769594 0.008540712 0.013456065 -0.016517827
000170 71 92 82 bc bb a6 92 3b 40 55 8a bc 02 6b b8 3b
       -0.01593897 0.004475442 -0.016886353 0.0056279907
000180 e4 c7 1f 3d 35 55 1e 3b dd 7a 30 3a 3d fe 24 3c
       0.03900899 0.0024159674 0.0006732175 0.010070381
000190 01 2f 00 3c a2 52 a4 3c dd d8 4e 3d ec 76 65 3d
       0.007823707 0.020058934 0.050499786 0.056021616
0001a0 9f 18 65 3c 3e 57 63 3c 5d 98 0c bd 09 b1 d1 bb
       0.013982921 0.013875781 -0.034324992 -0.006399278
0001b0 76 27 87 bc 22 7d 93 bc 45 26 b7 3c 71 88 78 3c
       -0.016498309 -0.018004004 0.022357116 0.015169249
0001c0 37 80 7f bc c3 7d 60 bc fe 83 ed 3c df 71 ee 3b
       -0.015594534 -0.013701859 0.028993603 0.007276758
0001d0 a8 00 8e bc 3c f8 c6 bc e9 42 d7 3c 8b bd e7 bc
       -0.017334297 -0.02428829 0.026277022 -0.028288623
0001e0 33 10 00 3a 0c 19 d0 bc 61 7c c0 3b af 34 52 3d
       0.00048852264 -0.025402568 0.005874202 0.051319774
0001f0 ba e4 2a bd 4d f7 95 3d 16 22 5b 3d 1a ce 76 3d
       -0.041722037 0.073225595 0.053499304 0.060255148
000200 2b dc 91 bc 7e 80 b3 3d 9b 34 94 3d af 09 38 3c
       -0.01780518 0.08764742 0.07236596 0.0112327775
000210 fa a5 64 3d a0 63 29 3d b9 34 ec bc b2 a1 28 bc
       0.05582235 0.041354775 -0.028833734 -0.010292457
000220 27 c5 b7 3c 9d 8a ba 3c 4b 70 0b bc 03 45 71 bc
       0.022432877 0.022771174 -0.008510659 -0.014725926
000230 5d 11 68 bc c8 cf 1a bb 1e 0d 41 bc 6e 4e e2 bb
       -0.014164296 -0.0023622382 -0.011782913 -0.006906322
000240 3e 2b cd bc 27 25 f3 bc 33 75 0b ba a1 ac 36 bc
       -0.025045034 -0.029680802 -0.0005319893 -0.011149556
000250 b0 8c 9f 3b 51 b7 b4 3c 2c 94 e5 bc 08 5a 97 3d
       0.004869066 0.022060068 -0.028024755 0.07390219
000260 85 2c 8d 3a 48 e1 69 3d c1 35 1d 3d 75 94 58 3d
       0.0010770714 0.05709961 0.03838134 0.052875955
000270 07 d4 c8 3c 18 6e a8 3d fe ae d4 bb a3 83 35 3d
       0.024515165 0.08224124 -0.0064905873 0.04431499
000280 2d 70 86 3d 5d f0 89 3d 50 41 14 3c 49 4d 58 bd
       0.065643646 0.06735299 0.009048775 -0.05280808
000290 77 2c 16 bd 5d ec 5d bb 22 9b 37 3d c8 e7 8c bc
       -0.0366635 -0.0033862807 0.04482568 -0.017200366
0002a0 33 65 28 3d d4 4a 63 3b e6 67 92 bc 92 20 0b 3d
       0.041112136 0.0034682052 -0.017871808 0.03396661
0002b0 9a a9 a1 bc 85 d8 30 3c ac f4 26 bd 40 63 8d bb
       -0.019734193 0.01079381 -0.04076068 -0.00431481
0002c0 8d 8a 14 3b f1 58 a8 3c f5 32 0d bd d7 54 65 3d
       0.002266559 0.020550223 -0.034472425 0.055989113
0002d0 de a5 f7 bb 84 c5 a3 3a 1b c9 46 3d b5 6f 75 3d
       -0.0075576147 0.0012494777 0.048531633 0.059920985
0002e0 7d 98 a2 bb d7 22 5c 3d a3 1c 83 3c 7f 09 83 3d
       -0.0049620257 0.053744163 0.016004866 0.063982956
0002f0 ff 32 39 bd 8b 59 99 3d e5 7d 13 3d 9d cc fa 3b
       -0.04521465 0.07487782 0.036008734 0.0076537863
000300 f4 41 09 bd 22 42 23 bd 94 0c 0f 3c b0 6b b4 bc
       -0.033510163 -0.03985799 0.008731026 -0.022024006
000310 a5 12 50 3c 3c d2 9c 3c e1 18 a2 bb 81 7a 04 3a
       0.012699758 0.019143216 -0.0049468135 0.0005053655
000320 40 f0 26 bc f6 24 64 bd 9f 64 0f bd f8 c7 b9 3c
       -0.010189116 -0.05569931 -0.03500807 0.02267836
000330 fb 6b 92 bc 46 0e 8f 3c a9 20 35 3c 4c a6 03 3d
       -0.017873755 0.01746286 0.01105515 0.032141015
000340 fa cb 06 3d 60 5d 97 3c ea e0 4e 3d 7c 0e 4a 3d
       0.03290937 0.018477142 0.050507464 0.04933022
000350 06 b3 2c 3d 15 4d 8e 3d 07 5a 26 3d 06 69 6e 3d
       0.042162918 0.06948296 0.0406132 0.058205627
000360 13 df 11 3d 81 c5 83 3d c4 0c 14 3d 66 ba 3a 3d
       0.03561313 0.06434155 0.036144987 0.04558792
000370 18 ed cf bc 1b d4 86 bd 40 bf e3 bc 46 90 db 3c
       -0.02538161 -0.06583425 -0.027801156 0.026802193
000380 38 0a f5 3c 2d fb 08 3d 68 f3 35 bb 9e 17 35 bd
       0.0299121 0.033442665 -0.002776349 -0.044211976
000390 0d 1c 8f bd 14 32 72 bd fd f3 87 bd 91 31 87 bd
       -0.06987772 -0.05912979 -0.06638334 -0.06601251
0003a0 cd a1 07 bd 77 39 15 3d c5 64 01 3c 6e 34 81 3a
       -0.03311329 0.036431756 0.0078975605 0.0009857544
0003b0 1d 20 c8 3b c4 6f aa 3d 3b a9 13 bd da bd 04 3e
       0.006107344 0.08322099 -0.036050063 0.12963048
0003c0 f4 7c f8 3c 72 97 31 3d 7d 52 d9 3d 04 fb 33 3d
       0.03033302 0.04335732 0.106114365 0.04394056
0003d0 a0 f7 85 3d 73 3f 48 3d 15 3d 15 3d af 9f e9 3d
       0.06541371 0.048888635 0.036435205 0.1140741
0003e0 e8 b4 e8 bb c7 53 36 bd 81 32 a1 3c 85 bf 9e 3c
       -0.007101644 -0.04451349 0.019677402 0.019378433
0003f0 56 68 28 bb c5 96 24 3c f7 83 7a b9 60 23 4a bd
       -0.0025696955 0.010045712 -0.00023891019 -0.049350142

linear.bias f4 [10]
000000 a3 ff 2c bd ac 10 66 bd ab 7c a3 3d 20 90 b6 3d
       -0.04223598 -0.056168243 0.07982763 0.089142084
000010 c2 7e 89 bd 08 39 02 3e 86 5d f4 bc 53 14 93 bc
       -0.0671363 0.12717068 -0.029829752 -0.017954027
000020 cc d1 3e bd 15 d1 a4 bc
       -0.046586797 -0.02011923
