app/models/digit_fconn3.pt (torch, 222591 bytes, 6 tensors)

linear_stack.0.weight f4 [64, 784]
00000000: 1138 d53c 5df5 163c 9c20 71bc 5af9 4f3c
00000010: fb26 1abb bdf4 d63c 4996 dabc bb8c 7c3c
00000020: 1dc6 fb3c 91ec fb3c a251 783c 88d9 b33b
00000030: a516 9fbc b1e9 053d dc8e 153d f170 ccbc
00000040: 9cb0 a83c e0e8 b13c a386 e1bb b632 57bc
00000050: 29ea 83bc 3770 c23c 8d92 1dbb c0fe 113d
00000060: afaa 7ebc 13ae 9dbc 9296 2f3d 316b e73c
00000070: f70e cdbc c119 b8ba f7c7 bfbc 4855 543b
00000080: ecff 983c 22c2 c63c 6162 ddbc 70a6 133d
00000090: ebb4 90bc 8d97 d4bc caee c33c fd63 bebc
000000a0: 84b7 c63c 7cb3 6c3b ca3e e43c 918b f0bc
000000b0: 0c21 d53c 0157 213d 83cb 96bb 9e8c ba3c
000000c0: 360c 1c3d a260 f5bb 1c0c adbc d345 8c3a
000000d0: a316 3bbc 6b7d 293a f8cf a2bb 56fe fb3a
000000e0: d805 95bb d746 ee3c 255d c0bc 0552 51bc
000000f0: 5d5b 1b3c 15e0 3d3c 23da c5bc 20a4 213b
00000100: 7106 293d 7429 9abc 2db1 f13c 8eaa 633b
00000110: 26e0 47bc 6719 8ebc 0da1 663c 485c 363c
00000120: 5000 0b3b a16f c6bb fe4f 123d 8b1d 82bc
00000130: 7c08 c03c 74aa c7bc 6534 1a3d 76b6 e7bb
00000140: 11b2 183d 2de7 583c 0d59 ec3c e044 93bc
00000150: bd7f 01bc 1f05 0f3c 709a d8ba 578a 7dbc
00000160: 1de3 babc ea67 d8bb 96f0 383a ac3d 2e3d
00000170: 4081 8a3c 8124 fbbc bd47 b0bb e05c 133d
00000180: da30 4f3c db2d 18bc eb15 fd3c fba9 df3b
00000190: e3e0 1e3d b348 40bc e305 e4bc 3a05 253d
000001a0: dd95 89bb 351b cb3b dc6d 433c 73f8 80bb
000001b0: 4873 273d ed5e 073d e23c f93c 815c 403c
000001c0: 6b3f b8bc 9ad2 2f3d f5fa d4bc e356 35bc
000001d0: d409 b53c 3369 c6bc 611f 3b3c 6f96 81bc
000001e0: 84a4 4ebc 465a 79ba 69c0 01bd eb4c a43c
000001f0: de23 0e3d 6d03 883c d366 ffbc 4c61 d03c
00000200: d5d3 793c 1fc7 45bc 6a25 c43c ed66 25ba
00000210: 27a4 31bc 06d6 673c 80a1 1cbb 4fd0 c23c
00000220: 9905 a33c 801d 4e3c 7a1e d9bb 5683 f83c
00000230: 4583 b739 34de 093c ed0c 25bc 04dd 203d
00000240: 6d55 2e3c 3f9a 183d b492 9f3c 00ae 12bc
00000250: 3b8e c13b 42a1 d8bc 2e47 25bd 1296 63ba
00000260: 1006 17bd cc8f ec3b 636b 0b3d 1ba8 4738
00000270: 00ad d43c ae2b f1ba 4295 613a c6d5 02bc
00000280: 9fdc dd3c c245 b13b bfd1 babc 0dfd 93bc
00000290: d0f8 19bb 5d36 e939 88f9 6e3c 5b29 3fbc
000002a0: a9a4 423c 40c1 b03c d8af 1e3d 1869 8ebc
000002b0: 7e59 043d 99b5 d63c 8b81 a43c 4450 b43c
000002c0: 39ed cc3c 0842 843c bf02 0cbd 3d43 13bd
000002d0: 3aa5 f03c 7c65 283d 6a4d c63c c465 103d
000002e0: 0d92 153d b6ce b5bc 5373 08bd f11f 37bd
000002f0: ec71 45bd c6fa 343c 110c d0bc c1e9 7bbc
00000300: 8d93 3f3c 03cd 5abb 602f 80bc 81e4 cfbc
00000310: c804 1f3d d0f8 8abc f0d1 a1bc 3874 92bc
00000320: 9496 f93c 30ee 26bc 0eab b0bc cb44 fdbc
00000330: 6d4b 2bbd f31d 36bc 0e77 4cbd e2cb cebc
00000340: a42c ad3b 91cb 7d3c 2432 94bc 8596 723c
00000350: b1b4 f7bc 0715 aabc 47e9 8d3c a180 a7bb
00000360: d2bb 71bd 741e 733c ed67 2e3c 4a37 9a3c
00000370: 3d3a 08bb 2d7a 6e3c ee23 8a3c ac1b 2c3d
00000380: 3088 66bc 9d62 33bc c9dd 24bc 5f38 ce3c
00000390: b678 b4ba 9cc7 c03b a1b2 a7bc 7238 abbc
000003a0: 5ddc 993c 37ca c6bc 8b2f ef39 c8a3 2a3c
000003b0: 2c27 073d bc02 c33b f3d4 e2bc 8340 573c
000003c0: 2cac 073d cf7e efbb ec9e 923c bb1f 11bd
000003d0: 135a 20bc 5f9d d5bc 5698 b7bc cf65 85bc
000003e0: d7c4 2bbc 019b 033c d340 a13c c192 4bbc
000003f0: 538a 7dbc 8919 23bc 5f16 5abc 333b 84bc
0.026027711 0.009213773 -0.014717247 0.012693727 -0.002352177 0.026239747 -0.02668299 0.015414412
0.030734116 0.030752452 0.0151561815 0.005488578 -0.019419977 0.03269357 0.036513194 -0.024956198
0.020592026 0.021717489 -0.006882505 -0.013134649 -0.016102867 0.023735149 -0.002404365 0.03564334
-0.015543624 -0.019248044 0.042868204 0.028249355 -0.02503155 -0.0014045761 -0.02341078 0.0032399464
0.01867672 0.024262492 -0.02702445 0.0360474 -0.017664393 -0.025951171 0.023917574 -0.023241038
0.024257429 0.0036117723 0.027861971 -0.029363425 0.026016735 0.039389614 -0.004601897 0.02277213
0.038097583 -0.007488326 -0.021123938 0.0010701962 -0.011418971 0.0006465527 -0.0049686395 0.0019225578
-0.004547816 0.029086513 -0.023481915 -0.012775903 0.009482232 0.01158907 -0.024151867 0.0024664477
0.04126591 -0.018818595 0.02950343 0.003473911 -0.012199437 -0.017346097 0.014076483 0.0111304
0.0021209903 -0.0060557877 0.035720818 -0.015883228 0.023441546 -0.02437327 0.037647624 -0.0070713116
0.037279192 0.01323871 0.028851056 -0.017977178 -0.00790399 0.008729248 -0.0016525518 -0.015474877
-0.022813374 -0.0066041844 0.0007054893 0.042539284 0.016907334 -0.030657055 -0.0053796456 0.035977244
0.012645924 -0.009288277 0.03089424 0.006825683 0.038788687 -0.011736083 -0.027834838 0.040288188
-0.0041987733 0.0061983117 0.011928048 -0.0039358675 0.040881425 0.033049513 0.030424539 0.011740805
-0.022491178 0.042925455 -0.025998572 -0.011068079 0.022099413 -0.024220085 0.0114210555 -0.015818803
-0.012612466 -0.0009512048 -0.031677637 0.020056209 0.034702174 0.016603196 -0.03117696 0.02543702
0.015248259 -0.0120714 0.023943622 -0.00063095876 -0.01084236 0.014150148 -0.0023899972 0.02378097
0.01990013 0.012580276 -0.0066259475 0.030336063 0.00035002283 0.008414794 -0.0100738825 0.039273277
0.010640484 0.037256476 0.019479133 -0.008952618 0.005906848 -0.026444081 -0.040351085 -0.0008681725
-0.036871016 0.0072192904 0.03403796 4.7601858e-05 0.0259614 -0.0018399858 0.000860531 -0.007985538
0.02708274 0.005409927 -0.022805093 -0.018065 -0.002349425 0.00044481727 0.01458586 -0.011667575
0.011880078 0.021576524 0.038741916 -0.017384097 0.03231191 0.02620964 0.020081302 0.02201093
0.02501546 0.016144767 -0.034182306 -0.035952795 0.029375661 0.041112408 0.024206836 0.0352533
0.036516238 -0.022193294 -0.033313107 -0.044708196 -0.048204347 0.011046117 -0.025396379 -0.0153755555
0.011692894 -0.0033386357 -0.01564759 -0.025377514 0.03882292 -0.016964346 -0.019753426 -0.017877683
0.030467309 -0.010188624 -0.02156594 -0.030916592 -0.04181998 -0.011115539 -0.049918227 -0.025243703
0.0052848626 0.015490429 -0.018090315 0.014806394 -0.030237528 -0.02076198 0.01732315 -0.0051117693
-0.05901701 0.014838804 0.010644895 0.018825192 -0.0020786666 0.014555496 0.016862836 0.042018577
-0.014070556 -0.010948804 -0.010062643 0.025173364 -0.0013768885 0.0058831703 -0.02047092 -0.020900939
0.018781835 -0.024266345 0.00045621055 0.010415025 0.03299634 0.0059512537 -0.027689433 0.013137939
0.03312318 -0.007308818 0.017898045 -0.03543065 -0.0097871 -0.026076017 -0.022411507 -0.016283898
-0.010483942 0.008032561 0.01968423 -0.012425126 -0.015474874 -0.0099548185 -0.013310998 -0.01614151

linear_stack.0.bias f4 [64]
00000000: 5ec5 80bc b493 26bc b156 25bd 7562 93bd
00000010: 7ee2 81b9 6f80 5abd f406 1c3d f056 d0bd
00000020: f3b7 80bd c8ed 44bd 96cc a63d 8430 0e3d
00000030: 3aba 3ebd 45a5 b5bb 19f9 28bd 8d80 9ebd
00000040: 90d5 31bd 1ff8 44bd 679a 33bd 6c3b abbd
00000050: fee6 1b3c 5ffa 1fbd 49f8 63bd c4e8 23bd
00000060: 487e 3dbd c271 b7bd 7588 8dbc 987a c73c
00000070: 34f5 90bd 65c2 fbbc 913a 243c ba69 14bc
00000080: 5921 a1bd 36b5 07be 4872 4bbd dc55 55bc
00000090: ad95 22bd e3d1 313d 131e 12bb 483b c13a
000000a0: 679e 173d 64fa 04bb 989a c2bc f245 e9bc
000000b0: 3c4b 27bd 518c 46bd c938 a9bd 0e41 d33c
000000c0: 3ea6 e8bc 8943 67bd 271f 80bc 9994 abbd
000000d0: 8edd 69bd e3c1 f93c 567d 5abd bf3d dabb
000000e0: a458 55bd de52 933c 4f97 523d c7cf 6fba
000000f0: 5a9e 30bc 7ed2 babd 2473 8abd 9d62 3e3b
-0.015719112 -0.010167051 -0.04036588 -0.071965136 -0.00024773547 -0.05334514 0.03809257 -0.10172832
-0.062850855 -0.04807833 0.081444904 0.034714237 -0.04656432 -0.0055433833 -0.041253183 -0.07739363
-0.04341656 -0.04808819 -0.04384842 -0.08360943 0.009515522 -0.03905713 -0.055656705 -0.040016904
-0.04626301 -0.089572445 -0.017276982 0.02435045 -0.07078019 -0.030732343 0.010023729 -0.00905841
-0.07867689 -0.1325272 -0.049669534 -0.013020959 -0.039693523 0.043413054 -0.0022295758 0.0014742399
0.0370163 -0.0020290846 -0.023755357 -0.028475735 -0.040843233 -0.04847366 -0.08262784 0.025787856
-0.028399583 -0.05646089 -0.015639855 -0.08377952 -0.057096057 0.03048796 -0.053342186 -0.0066601927
-0.052086487 0.01798385 0.05141383 -0.00091480877 -0.010779941 -0.091221794 -0.067602426 0.0029050477

linear_stack.2.weight f4 [64, 64]
00000000: 1edc c83d 12be ea3d 4e18 eabc e337 edbc
00000010: 4bc8 2c3c a029 97be be85 ffbd 54c4 f4bd
00000020: 844c 97be 4a0d babd 89c1 52bd a29b 4ebe
00000030: 6c46 b5bd 192e 813e 6489 b2bd b2c6 753d
00000040: d7f1 f9bd b5bd d2bd 4c79 32bd 764a 69be
00000050: 6eff 08bd 8977 f43c 1bfb 4c3d 206e 8dbd
00000060: 5a51 423d 34c6 dabd 69bd 0a3e 2789 bdbd
00000070: 3df7 a9bc 2ee1 84bd aafa a33e 30d2 5b3d
00000080: 3c7d 463d addb 1ebe d83b ac3b 15c1 e63c
00000090: 94ec 3dbc 0a13 50bb 33ad 8bbd e9c9 573d
000000a0: fd5c 8abd c642 ca3d fd9a 7fbe 976b b2bd
000000b0: 7a50 fa3d 2252 dfbd 795c c8bd 7405 173f
000000c0: 99d3 9cbc dda1 493a 3f3d 7dbd f1da da3c
000000d0: 0926 85bd 4716 ee3c 2d22 0abe 3df2 b6be
000000e0: 7f68 ecbd e9f3 46be a435 4dbe 1f38 9ebd
000000f0: 9274 493d 33e7 77be 3a2e b93e 6cc6 c83d
00000100: 2bb0 b53d 6115 87bd 5383 6fbe 717b c6bd
00000110: 6506 3b3e 7dbe 6cbe e8eb 953e 27fd 203d
00000120: 1226 a7bd 77af 2fbe 23c7 58bd 5e8c 80bd
00000130: 43e1 ff3d 2dc8 96bd 9ab3 9e3d 0f33 1e3d
00000140: 30a7 43bd a6dd 923d af7b ce3d 2648 1b3d
00000150: 0c3a 56bb c16e b5bd f811 38bd 57b8 91bd
00000160: 1aa6 b93d 0b61 4cbe beeb dabd fa2e 25bd
00000170: 712a 55be 237b 6ebc e4f8 2d3c 1ba4 c8bd
00000180: 568d a53e a709 a9be 3382 a0bd ca80 f3bd
00000190: eebb 23bd 1513 97bb 2a49 a6bd b336 e43d
000001a0: d4ef 493e 5ec9 8fbd 2c16 b4be e9cb febd
000001b0: 5c5d d73d 8428 bb3d b2b0 f5bd 701d 13be
000001c0: 9630 983d d238 5dbc cd5a 8cbe 933b 64be
000001d0: 4c4f 133d 7750 ad3d 95ad 6fbd f210 f2bb
000001e0: c3ba 6cbd da78 543e ec7b 083d 3c91 94be
000001f0: a9d4 f6bc ae1c 9dbe 2542 72be c9c2 0c3d
00000200: 8b1c 49bd c116 aa3d 17a6 9a39 aef8 6fbd
00000210: 2e2b 61bd 44d4 82be b8c0 27bd 3186 16be
00000220: 6eeb 023e c3d6 adbd 2cd7 8a3d 3f5a d03b
00000230: 189e 96bc 3883 b03d a197 ff3b 6d38 05bd
00000240: 0511 2a3d c8d4 2d3d 9957 9d3d facd c03e
00000250: 1fc1 e4bc aa74 f73a eb6f 01bd bb43 fdbc
00000260: bf81 373c 1335 98be e67e 693d 1bb4 d8bd
00000270: f473 07be fa77 72bd db71 01be a0de 053d
00000280: fe13 0f3c 902d 41be 2b23 ad3d 76c0 47bc
00000290: 8ed3 083e 6d9a d5bb 9e83 bfbe af7f 05bd
000002a0: 3457 363d a51e 7a3d 2171 913d 375e 3ebc
000002b0: 8281 ad3c 6587 b1bd 9e63 dc3b d6a0 543d
000002c0: d377 683b bb7f 85bd 7c8d 46be 6aac 323d
000002d0: e884 8e3d 3c07 5abe e191 513d 1794 8bbe
000002e0: 6b11 f0bd 23a0 a83d 5246 4cbe baf6 373d
000002f0: 7e3c c83d 89c7 b13a a308 0dbe 51de 673c
00000300: e35f 8e3b 1b77 b3bd 71ab 84bd 667f f53d
00000310: 90fa 2abe aafc e6bd 4377 90be 1bce 90bc
00000320: e1c9 d5bd 0c4f 933d 2ce9 9dbd 5441 cabe
00000330: a73d bfbd e47a c9be baf6 07bc bc01 5fbd
00000340: f492 a73d d271 8c3d 07ed 4bbd dea2 3fbd
00000350: 9f5d 99bd a955 fd3a 9236 64bd c3c5 1f3e
00000360: c7cf d33d b9db 2cbe cd22 e93d 41d3 fa3d
00000370: e37f 85bd 3d27 ea3d 39b3 ad3e bbbf ed3c
00000380: 6c1e 80bd d5b4 37be 6f7e 88bd b650 433d
00000390: b8ba 633b 8ef5 0b3e 6013 41bd 2153 6c3d
000003a0: 67cb d03d fa9b 3bbe 2b43 a83d b673 17bd
000003b0: 6fe7 55be bb5b e23d 21b8 563d 9725 643e
000003c0: 5c82 88bd 9b55 ae3d f719 a83e 26aa b9bd
000003d0: b8f3 f7bd c21a 4fbe d20a 0c3a 3f51 473e
000003e0: 73fb 3dbd 1b64 a63d 34be 083f 95b3 d63d
000003f0: e539 c13d 7202 233e f330 023e fa08 10be
0.09807609 0.11462034 -0.028576043 -0.028957313 0.0105458 -0.29523945 -0.12476681 -0.11951509
-0.29550564 -0.09084566 -0.0514541 -0.20176557 -0.088513225 0.25230482 -0.087176114 0.060003944
-0.122043304 -0.1029009 -0.04357271 -0.22782311 -0.03344672 0.029842155 0.05004416 -0.0690577
0.047440864 -0.106823355 0.13548817 -0.09254675 -0.020747775 -0.06488262 0.3202718 0.053667247
0.048459277 -0.15513487 0.0052561574 0.02816824 -0.011592049 -0.003174963 -0.068201445 0.05268279
-0.06756017 0.09876017 -0.24961467 -0.087119274 0.12222381 -0.109043375 -0.09783263 0.58992696
-0.019143866 0.0007691661 -0.061825987 0.026715728 -0.06501395 0.029063357 -0.134896 -0.35731688
-0.115433685 -0.19428982 -0.20039994 -0.07725548 0.049183436 -0.24209289 0.3616808 0.09803471
0.08871492 -0.065958746 -0.2338994 -0.09691513 0.18264158 -0.2311954 0.29281545 0.039303925
-0.08161558 -0.17156778 -0.052924287 -0.06276773 0.12494137 -0.07362399 0.077491 0.038622912
-0.047766864 0.07171182 0.100821845 0.037910603 -0.0032688407 -0.08859015 -0.04493901 -0.07115238
0.090648845 -0.19958894 -0.106894955 -0.040328003 -0.20816971 -0.014555725 0.010618422 -0.09796926
0.32334393 -0.33015177 -0.078373335 -0.11889799 -0.039974146 -0.004610429 -0.08119424 0.111432455
0.19720393 -0.070208296 -0.35173166 -0.124412365 0.10515854 0.09138587 -0.119965926 -0.14366698
0.07431142 -0.013502317 -0.27413025 -0.22288351 0.035964295 0.08462613 -0.05851515 -0.007387274
-0.057795297 0.20749226 0.033321306 -0.29017055 -0.030130701 -0.30685943 -0.23658045 0.03436545
-0.049099486 0.08305121 0.00029496916 -0.05858677 -0.05497282 -0.2555257 -0.040955275 -0.14699627
0.12785122 -0.08488228 0.06779322 0.0063584144 -0.018385932 0.08618778 0.007800058 -0.032524515
0.041520137 0.042439252 0.076827236 0.37657148 -0.027924119 0.0018879373 -0.031600874 -0.030916085
0.0112003675 -0.29727992 0.057005785 -0.105812274 -0.13227826 -0.05919645 -0.12641089 0.032683015
0.008732794 -0.18865037 0.084539734 -0.012191882 0.13361952 -0.006518653 -0.37405103 -0.03259247
0.044516757 0.06106438 0.07101656 -0.011619142 0.021179918 -0.086684026 0.0067257425 0.051911198
0.0035471811 -0.06518503 -0.1938991 0.043621458 0.069589436 -0.21291822 0.05116451 -0.2726142
-0.11722072 0.08233669 -0.199487 0.04491303 0.09777163 0.0013563494 -0.13772826 0.014152125
0.0043449267 -0.08762952 -0.06478012 0.1198719 -0.16697145 -0.112786606 -0.2821599 -0.017676404
-0.10438896 0.07192811 -0.0771049 -0.39502966 -0.09337931 -0.3935157 -0.00829857 -0.054445013
0.08182326 0.06857647 -0.049786594 -0.04678618 -0.0748856 0.0019327897 -0.055716105 0.15602784
0.10342365 -0.16880693 0.11383591 0.12247325 -0.06518533 0.11433265 0.339258 0.029022088
-0.062558025 -0.17940076 -0.0666474 0.047684394 0.0034748744 0.1366789 -0.047137618 0.057696465
0.10195046 -0.18321219 0.08215936 -0.036975585 -0.20889066 0.110526524 0.052421693 0.22279964
-0.06665489 0.08512422 0.3283231 -0.09065656 -0.121070325 -0.20225051 0.00053421885 0.19464587
-0.04638238 0.08124562 0.53415227 0.10483471 0.09434871 0.15918902 0.12713985 -0.14065924

linear_stack.2.bias f4 [64]
00000000: 4eda 93bd 955d 993e 107c 4fbb ef83 f0be
00000010: e9ba 9fbc 9854 22bf a3dd 9cbd 875f 1cbe
00000020: e2f4 e3be b97c ef3d aba9 d5bd bc57 c33f
00000030: 5815 c33d 2cfd 103d 1c3a 043f 37c8 25be
00000040: 7f62 4cbe 3cee c9be dadf 0d3e 3cf5 eebe
00000050: e633 b6bd b33d 31bd ae0a 99bd 874d 60bd
00000060: a76d 88be f752 c8bd 1483 a83e 2e00 543e
00000070: 34c9 9b3f f719 2a3d 6f44 b73e d757 4abe
00000080: 733a acbd bfa2 433e 9a92 323f 0747 91be
00000090: e660 35be 0793 173f efaf dc3e f809 47bd
000000a0: 8837 bcbd 092b 38be 0f76 0e3d aaf4 68be
000000b0: 3d8a 893f 6be4 07be acec c6bc c0b2 08bd
000000c0: 796e 09be 0c60 2c3e 26d0 e43f 8c04 d4be
000000d0: 5b12 39bd b727 013e 1936 1fbe 30f5 7bbe
000000e0: 3170 1dbe 93c3 1b3f fb1b 33be 8c7f 57bd
000000f0: 15a9 bdbc 5f01 06bf eaa2 e1bd 62b1 903f
-0.07219373 0.2995421 -0.003165964 -0.46975657 -0.019498305 -0.6341033 -0.07659461 -0.15270816
-0.44522768 0.11693711 -0.10432752 1.526115 0.09525555 0.035397694 0.5165117 -0.16189657
-0.19959448 -0.3943957 0.13854924 -0.46671474 -0.088966176 -0.04327173 -0.0747274 -0.054761436
-0.26646158 -0.09781449 0.32912505 0.20703194 1.2170777 0.04152867 0.35794398 -0.1976007
-0.08409586 0.19105051 0.69754946 -0.28374502 -0.17712745 0.5920872 0.43102977 -0.04859349
-0.09190279 -0.17985167 0.03478056 -0.22749582 1.0745312 -0.13270728 -0.024282776 -0.033373594
-0.13421048 0.16833514 1.7876022 -0.4140972 -0.04518352 0.12612806 -0.1554798 -0.2460525
-0.15374829 0.608453 -0.17491142 -0.052611873 -0.023151914 -0.5234584 -0.110174015 1.1304133

linear_stack.4.weight f4 [10, 64]
00000000: 5528 623d 298e 8d3e 8e0c 97bd df80 2fbe
00000010: 7e52 79bd 5a39 e4bd c121 773c 0d3c a13c
00000020: f35d 7c3e e093 79be ca42 13be 6a23 b4bd
00000030: 49e5 1ebe 7749 31be 05c7 2ebd 9292 a6bb
00000040: a956 98be 5cb0 be3e 7ad6 c6bd 568f f23d
00000050: df73 973e a437 223e 0878 b2bc 46a4 afbe
00000060: 0e25 a03e 7982 6ebd dcc9 823e ed07 bfbd
00000070: 8f9f 70be 83c6 513c 0fd0 45be 1fb5 fa3d
00000080: ae1f 46bd 4b96 46be c941 42be d9cf 88bd
00000090: b5b3 2bbe f6c6 113b 9ccf 7f3d 8ab0 98bd
000000a0: 8093 a1be c449 9ebd 4512 853e c80a 37bc
000000b0: 5338 19be 4ba7 bb3d bb68 38be c044 00bd
000000c0: c47d 51be df98 393d 195f 063e 3be3 bdbd
000000d0: b653 b2be 8da8 253e 3f46 3bbe 3881 b7be
000000e0: deba 93be 043e 8ebd 7622 1dbc 867e a43b
000000f0: 287a 33be ce33 883d 2074 883e 9453 553d
00000100: f922 00be 3802 7abe cfcb bbbe 426f 4dbe
00000110: 97af 8abe a84a 473e 761b 8cbe 9c0c 6c3d
00000120: 0d89 023e bc4c 27bf 384d 2cbe 1d64 88be
00000130: 2837 02bf b5b5 2fbe 487e 053f a301 d7bc
00000140: 3ebd 2abe b50b 05bd c4e7 513d 296d 0cbe
00000150: b8e9 d1be 958b 76be a9c1 38be 53ab 043d
00000160: 2848 7ebe 5388 16be 275c 8abe 024f 283e
00000170: 962a 23bd 15b2 d83c ef12 9f3e d0a2 f53e
00000180: 94fd f1bd 2a50 4dbd 80f6 5d3d 432a ccbe
00000190: 1f5a 023f 21be e83e f90c 57be dc38 823d
000001a0: e591 353e 2985 d03c 7738 94bd 1dba dabd
000001b0: 7619 1fbd 0599 02bf 0572 ef3c b494 00bf
000001c0: 7a6b ed3e 2cc4 ecbd 49a0 79be 4975 7abc
000001d0: 6947 863e f12c 0dbe 1275 a6be 10f6 c03e
000001e0: a682 9f3e 7dca 9fbe 2d18 91be bda1 0e3e
000001f0: 0f85 dbbe c703 2b3e 0290 563d c517 d4be
00000200: f3e3 573c 7a16 763d f447 aa3d 4b7d 8b3d
00000210: fdce 9f3d 467e 4bbe ed23 973d 7a76 4ebd
00000220: 3394 ecbd ccc1 2dbe badd fb3d 3fc4 ad3e
00000230: 0bcc 953e 0013 003e 8314 a4bd bd18 38be
00000240: a601 09be 082d ad3c 06fe a7bd 1d8f ee3b
00000250: c99e 6b3e 98d6 11be 78c4 87be 2eec 1abe
00000260: dc03 b5bc b95e 0cbd 1db7 923d 939f 7a3e
00000270: e41c 94be 3138 703e 7ab3 7b3e 7e3a b7bd
00000280: e64b 11be af26 16be 2f52 2abe c187 99bd
00000290: 57e8 81be f5b6 6fbe 1938 2fbe e11f 5d3c
000002a0: edd5 8fbe edd8 233e 2335 8fbd bc30 d33d
000002b0: 37c1 4abe d3f2 b8bc aa59 133e ed0e 693d
000002c0: 9d12 683e 2a56 cd3b 7bb7 9cbb 4430 db3e
000002d0: 667e aa3b 21a0 613e b3f0 93bc 8c99 573d
000002e0: 060e b63e 1ed8 0b3e ce2b b23e 9f13 953e
000002f0: 7152 c63d 088a a13e f4b4 863e 5e37 81bd
00000300: 3625 85bd 74eb 633e dfe4 05be d2c2 513e
00000310: 699a 673e 7bae 8c3e 272d bcbd f466 b4bd
00000320: e063 9ebd b0e2 38be bf4b 31be de97 963e
00000330: b3d2 0bbd 1111 cdbd 94da 513e 579f 52be
00000340: 586b f73e 72a7 eabd a510 75be 7ba3 a73d
00000350: 6695 8d3e 0de2 e5bd 306a f9bc 9bdf 583e
00000360: eb7d 753d 26c3 d2ba 1281 6dbd 6975 2dbe
00000370: dc5b 17be 9ab3 013e 6e81 5e3e a340 aa3d
00000380: 23f5 4e3d a45d bdbd 4cde 9c3e 92d9 bfbd
00000390: 899c 56be 61a4 36be 6203 833e 475e f3bb
000003a0: c7da 043e 0d17 97bd ed0b d23d 7f7a bf3d
000003b0: cfe5 f9bd 80be 8d3e 38a1 d3bd d462 233e
000003c0: e9ab 35be 17c7 523e 72f5 4c3e 584f 143e
000003d0: 19d7 a33e 5aef 53be 343c f2bd bf4d 463e
000003e0: def9 2d3e 0c72 bd3e 769a 2ebe a4db 42be
000003f0: 1006 05be 8215 923e f80e babd 3d44 4bbe
0.055214245 0.27647522 -0.073754415 -0.17139004 -0.060869686 -0.111437514 0.015083731 0.019681955
0.24645214 -0.24372816 -0.14380947 -0.08795817 -0.15517153 -0.17313181 -0.04267027 -0.0050833905
-0.29753616 0.37243927 -0.09708877 0.118437454 0.2958059 0.15841538 -0.021785751 -0.34305018
0.3127827 -0.058229897 0.2554463 -0.093276836 -0.23498367 0.012803677 -0.1931765 0.12241577
-0.048370056 -0.1939327 -0.18970408 -0.06680269 -0.16767772 0.0022243834 0.06245385 -0.07455547
-0.31557846 -0.077289134 0.259905 -0.011172004 -0.14962892 0.09162768 -0.18008702 -0.031315565
-0.20458132 0.045311805 0.13122214 -0.092718564 -0.3482949 0.16177578 -0.18288516 -0.35840774
-0.28853506 -0.06945422 -0.009590736 0.0050199656 -0.17527068 0.06650506 0.26651096 0.05208166
-0.12513341 -0.24414909 -0.3667893 -0.20061973 -0.2708709 0.19462073 -0.273647 0.057629213
0.12747593 -0.6535146 -0.16826332 -0.2663888 -0.5086541 -0.1715916 0.52145815 -0.026245898
-0.16673753 -0.032481868 0.05124642 -0.13713516 -0.40998626 -0.24076684 -0.18042625 0.03238995
-0.24832213 -0.14700441 -0.27023432 0.16436389 -0.039835535 0.026452104 0.31069133 0.4797578
-0.11815944 -0.05012528 0.05419016 -0.39875993 0.50918764 0.45457557 -0.21001042 0.06358501
0.17731436 0.02545412 -0.07237332 -0.106800295 -0.03884264 -0.5101474 0.029229173 -0.502269
0.4637106 -0.11560854 -0.2437755 -0.015286752 0.26226357 -0.13786675 -0.32511193 0.3768773
0.31154364 -0.31209174 -0.28338757 0.13928886 -0.42874953 0.1670066 0.05238343 -0.41424385
0.013176906 0.06008003 0.08314505 0.06811007 0.07803152 -0.19872388 0.07379899 -0.050405957
-0.11551704 -0.16968459 0.1229815 0.33938786 0.29257235 0.12507248 -0.08011725 -0.17978187
-0.13379535 0.021139637 -0.08202748 0.007280244 0.2300979 -0.14242017 -0.2651708 -0.15129158
-0.022096567 -0.034270022 0.07163832 0.24474935 -0.28928292 0.23458935 0.24580184 -0.089467034
-0.14189109 -0.14663194 -0.16632913 -0.07496596 -0.25372574 -0.23409636 -0.17111243 0.01349637
-0.280929 0.1600072 -0.06992557 0.1031203 -0.19800268 -0.022576725 0.14389673 0.056899
0.2266335 0.006266375 -0.0047826148 0.4281026 0.005203056 0.2203374 -0.01805911 0.052636668
0.35557574 0.13656661 0.34799045 0.29116532 0.09683693 0.31550622 0.2630993 -0.063093886
-0.06501238 0.22257787 -0.13075589 0.20484474 0.22617497 0.27476868 -0.091882996 -0.08808699
-0.077338934 -0.18055224 -0.17314051 0.2941274 -0.034136485 -0.10013021 0.20493537 -0.20568596
0.48324084 -0.11457719 -0.2393213 0.08185478 0.27653044 -0.112247564 -0.030446142 0.21179049
0.059934538 -0.0016079887 -0.05798442 -0.1693932 -0.14781135 0.12666169 0.21729061 0.0831311
0.05052675 -0.09246376 0.3063835 -0.0936767 -0.20958151 -0.17836143 0.25588518 -0.00742701
0.12974082 -0.073774435 0.10256181 0.09349536 -0.12202036 0.27684402 -0.103334844 0.15955669
-0.1774136 0.20583759 0.20015505 0.14483392 0.32000044 -0.20696774 -0.11827889 0.19365595
0.16989848 0.37001073 -0.1705111 -0.19029099 -0.12990594 0.28532034 -0.09084886 -0.1985025

linear_stack.4.bias f4 [10]
00000000: 8756 26bf 6e4d ccbe e840 79bd 9c36 803d
00000010: 8b3a c53e 03d5 e4be 0f81 a1be 3b1e 1cbf
00000020: 7ab5 ea3f 0d0e f23e
-0.6497578 -0.39902824 -0.060852915 0.06260416 0.38521227 -0.44693765 -0.31543776 -0.6098363
1.8336632 0.47276345
